…
           'CHECKPOINT_PERIOD': 10,
           'CHECKPOINT_TYPE': 'pytorch',
           'DATASET': 'kinetics',
           'ENABLE': True,
           'EVAL_PERIOD': 10,
           'KILL_LOSS_EXPLOSION_FACTOR': 0.0,
           'MIXED_PRECISION': False},
 'VIS_MASK': CfgNode({'ENABLE': False}),
 'X3D': {'BN_LIN5': False,
         'BOTTLENECK_FACTOR': 1.0,
         'CHANNELWISE_3x3x3': True,
         'DEPTH_FACTOR': 1.0,
         'DIM_C1': 12,
         'DIM_C5': 2048,
         'SCALE_RES2': False,
         'WIDTH_FACTOR': 1.0}}
[01/26 22:21:03][INFO] misc.py:  186: Model:
MViT(
  (patch_embed): PatchEmbed(
    (proj): Conv3d(3, 96, kernel_size=[3, 7, 7], stride=[2, 4, 4], padding=[1, 3, 3])
  )
  (blocks): ModuleList(
    (0): MultiScaleBlock(
      (norm1): LayerNorm((96,), eps=1e-06, elementwise_affine=True)
      (attn): MultiScaleAttention(
        (qkv): Linear(in_features=96, out_features=288, bias=True)
        (proj): Linear(in_features=96, out_features=96, bias=True)
        (pool_q): Conv3d(96, 96, kernel_size=[3, 3, 3], stride=[1, 1, 1], padding=[1, 1, 1], groups=96, bias=False)
        (norm_q): LayerNorm((96,), eps=1e-06, elementwise_affine=True)
        (pool_k): Conv3d(96, 96, kernel_size=[3, 3, 3], stride=[1, 8, 8], padding=[1, 1, 1], groups=96, bias=False)
        (norm_k): LayerNorm((96,), eps=1e-06, elementwise_affine=True)
        (pool_v): Conv3d(96, 96, kernel_size=[3, 3, 3], stride=[1, 8, 8], padding=[1, 1, 1], groups=96, bias=False)
        (norm_v): LayerNorm((96,), eps=1e-06, elementwise_affine=True)
      )
      (drop_path): Identity()
      (norm2): LayerNorm((96,), eps=1e-06, elementwise_affine=True)
      (mlp): Mlp(
        (fc1): Linear(in_features=96, out_features=384, bias=True)
        (act): GELU()
        (fc2): Linear(in_features=384, out_features=96, bias=True)
      )
    )
    (1): MultiScaleBlock(
      (norm1): LayerNorm((96,), eps=1e-06, elementwise_affine=True)
      (attn): MultiScaleAttention(
        (qkv): Linear(in_features=96, out_features=576, bias=True)
        (proj): Linear(in_features=192, out_features=192, bias=True)
        (pool_q): Conv3d(96, 96, kernel_size=[3, 3, 3], stride=[1, 2, 2], padding=[1, 1, 1], groups=96, bias=False)
        (norm_q): LayerNorm((96,), eps=1e-06, elementwise_affine=True)
        (pool_k): Conv3d(96, 96, kernel_size=[3, 3, 3], stride=[1, 4, 4], padding=[1, 1, 1], groups=96, bias=False)
        (norm_k): LayerNorm((96,), eps=1e-06, elementwise_affine=True)
        (pool_v): Conv3d(96, 96, kernel_size=[3, 3, 3], stride=[1, 4, 4], padding=[1, 1, 1], groups=96, bias=False)
        (norm_v): LayerNorm((96,), eps=1e-06, elementwise_affine=True)
      )
      (drop_path): DropPath()
      (norm2): LayerNorm((192,), eps=1e-06, elementwise_affine=True)
      (mlp): Mlp(
        (fc1): Linear(in_features=192, out_features=768, bias=True)
        (act): GELU()
        (fc2): Linear(in_features=768, out_features=192, bias=True)
      )
      (proj): Linear(in_features=96, out_features=192, bias=True)
      (pool_skip): MaxPool3d(kernel_size=[1, 3, 3], stride=[1, 2, 2], padding=[0, 1, 1], dilation=1, ceil_mode=False)
    )
    (2): MultiScaleBlock(
      (norm1): LayerNorm((192,), eps=1e-06, elementwise_affine=True)
      (attn): MultiScaleAttention(
        (qkv): Linear(in_features=192, out_features=576, bias=True)
        (proj): Linear(in_features=192, out_features=192, bias=True)
        (pool_q): Conv3d(96, 96, kernel_size=[3, 3, 3], stride=[1, 1, 1], padding=[1, 1, 1], groups=96, bias=False)
        (norm_q): LayerNorm((96,), eps=1e-06, elementwise_affine=True)
        (pool_k): Conv3d(96, 96, kernel_size=[3, 3, 3], stride=[1, 4, 4], padding=[1, 1, 1], groups=96, bias=False)
        (norm_k): LayerNorm((96,), eps=1e-06, elementwise_affine=True)
        (pool_v): Conv3d(96, 96, kernel_size=[3, 3, 3], stride=[1, 4, 4], padding=[1, 1, 1], groups=96, bias=False)
        (norm_v): LayerNorm((96,), eps=1e-06, elementwise_affine=True)
      )
      (drop_path): DropPath()
      (norm2): LayerNorm((192,), eps=1e-06, elementwise_affine=True)
      (mlp): Mlp(
        (fc1): Linear(in_features=192, out_features=768, bias=True)
        (act): GELU()
        (fc2): Linear(in_features=768, out_features=192, bias=True)
      )
    )
    (3): MultiScaleBlock(
      (norm1): LayerNorm((192,), eps=1e-06, elementwise_affine=True)
      (attn): MultiScaleAttention(
        (qkv): Linear(in_features=192, out_features=1152, bias=True)
        (proj): Linear(in_features=384, out_features=384, bias=True)
        (pool_q): Conv3d(96, 96, kernel_size=[3, 3, 3], stride=[1, 2, 2], padding=[1, 1, 1], groups=96, bias=False)
        (norm_q): LayerNorm((96,), eps=1e-06, elementwise_affine=True)
        (pool_k): Conv3d(96, 96, kernel_size=[3, 3, 3], stride=[1, 2, 2], padding=[1, 1, 1], groups=96, bias=False)
        (norm_k): LayerNorm((96,), eps=1e-06, elementwise_affine=True)
        (pool_v): Conv3d(96, 96, kernel_size=[3, 3, 3], stride=[1, 2, 2], padding=[1, 1, 1], groups=96, bias=False)
        (norm_v): LayerNorm((96,), eps=1e-06, elementwise_affine=True)
      )
      (drop_path): DropPath()
      (norm2): LayerNorm((384,), eps=1e-06, elementwise_affine=True)
      (mlp): Mlp(
        (fc1): Linear(in_features=384, out_features=1536, bias=True)
        (act): GELU()
        (fc2): Linear(in_features=1536, out_features=384, bias=True)
      )
      (proj): Linear(in_features=192, out_features=384, bias=True)
      (pool_skip): MaxPool3d(kernel_size=[1, 3, 3], stride=[1, 2, 2], padding=[0, 1, 1], dilation=1, ceil_mode=False)
    )
    (4): MultiScaleBlock(
      (norm1): LayerNorm((384,), eps=1e-06, elementwise_affine=True)
      (attn): MultiScaleAttention(
        (qkv): Linear(in_features=384, out_features=1152, bias=True)
        (proj): Linear(in_features=384, out_features=384, bias=True)
        (pool_q): Conv3d(96, 96, kernel_size=[3, 3, 3], stride=[1, 1, 1], padding=[1, 1, 1], groups=96, bias=False)
        (norm_q): LayerNorm((96,), eps=1e-06, elementwise_affine=True)
        (pool_k): Conv3d(96, 96, kernel_size=[3, 3, 3], stride=[1, 2, 2], padding=[1, 1, 1], groups=96, bias=False)
        (norm_k): LayerNorm((96,), eps=1e-06, elementwise_affine=True)
        (pool_v): Conv3d(96, 96, kernel_size=[3, 3, 3], stride=[1, 2, 2], padding=[1, 1, 1], groups=96, bias=False)
        (norm_v): LayerNorm((96,), eps=1e-06, elementwise_affine=True)
      )
      (drop_path): DropPath()
      (norm2): LayerNorm((384,), eps=1e-06, elementwise_affine=True)
      (mlp): Mlp(
        (fc1): Linear(in_features=384, out_features=1536, bias=True)
        (act): GELU()
        (fc2): Linear(in_features=1536, out_features=384, bias=True)
      )
    )
    (5): MultiScaleBlock(
      (norm1): LayerNorm((384,), eps=1e-06, elementwise_affine=True)
      (attn): MultiScaleAttention(
        (qkv): Linear(in_features=384, out_features=1152, bias=True)
        (proj): Linear(in_features=384, out_features=384, bias=True)
        (pool_q): Conv3d(96, 96, kernel_size=[3, 3, 3], stride=[1, 1, 1], padding=[1, 1, 1], groups=96, bias=False)
        (norm_q): LayerNorm((96,), eps=1e-06, elementwise_affine=True)
        (pool_k): Conv3d(96, 96, kernel_size=[3, 3, 3], stride=[1, 2, 2], padding=[1, 1, 1], groups=96, bias=False)
        (norm_k): LayerNorm((96,), eps=1e-06, elementwise_affine=True)
        (pool_v): Conv3d(96, 96, kernel_size=[3, 3, 3], stride=[1, 2, 2], padding=[1, 1, 1], groups=96, bias=False)
        (norm_v): LayerNorm((96,), eps=1e-06, elementwise_affine=True)
      )
      (drop_path): DropPath()
      (norm2): LayerNorm((384,), eps=1e-06, elementwise_affine=True)
      (mlp): Mlp(
        (fc1): Linear(in_features=384, out_features=1536, bias=True)
        (act): GELU()
        (fc2): Linear(in_features=1536, out_features=384, bias=True)
      )
    )
    (6): MultiScaleBlock(
      (norm1): LayerNorm((384,), eps=1e-06, elementwise_affine=True)
      (attn): MultiScaleAttention(
        (qkv): Linear(in_features=384, out_features=1152, bias=True)
        (proj): Linear(in_features=384, out_features=384, bias=True)
        (pool_q): Conv3d(96, 96, kernel_size=[3, 3, 3], stride=[1, 1, 1], padding=[1, 1, 1], groups=96, bias=False)
        (norm_q): LayerNorm((96,), eps=1e-06, elementwise_affine=True)
        (pool_k): Conv3d(96, 96, kernel_size=[3, 3, 3], stride=[1, 2, 2], padding=[1, 1, 1], groups=96, bias=False)
        (norm_k): LayerNorm((96,), eps=1e-06, elementwise_affine=True)
        (pool_v): Conv3d(96, 96, kernel_size=[3, 3, 3], stride=[1, 2, 2], padding=[1, 1, 1], groups=96, bias=False)
        (norm_v): LayerNorm((96,), eps=1e-06, elementwise_affine=True)
      )
      (drop_path): DropPath()
      (norm2): LayerNorm((384,), eps=1e-06, elementwise_affine=True)
      (mlp): Mlp(
        (fc1): Linear(in_features=384, out_features=1536, bias=True)
        (act): GELU()
        (fc2): Linear(in_features=1536, out_features=384, bias=True)
      )
    )
    (7): MultiScaleBlock(
      (norm1): LayerNorm((384,), eps=1e-06, elementwise_affine=True)
      (attn): MultiScaleAttention(
        (qkv): Linear(in_features=384, out_features=1152, bias=True)
        (proj): Linear(in_features=384, out_features=384, bias=True)
        (pool_q): Conv3d(96, 96, kernel_size=[3, 3, 3], stride=[1, 1, 1], padding=[1, 1, 1], groups=96, bias=False)
        (norm_q): LayerNorm((96,), eps=1e-06, elementwise_affine=True)
        (pool_k): Conv3d(96, 96, kernel_size=[3, 3, 3], stride=[1, 2, 2], padding=[1, 1, 1], groups=96, bias=False)
        (norm_k): LayerNorm((96,), eps=1e-06, elementwise_affine=True)
        (pool_v): Conv3d(96, 96, kernel_size=[3, 3, 3], stride=[1, 2, 2], padding=[1, 1, 1], groups=96, bias=False)
        (norm_v): LayerNorm((96,), eps=1e-06, elementwise_affine=True)
      )
      (drop_path): DropPath()
      (norm2): LayerNorm((384,), eps=1e-06, elementwise_affine=True)
      (mlp): Mlp(
        (fc1): Linear(in_features=384, out_features=1536, bias=True)
        (act): GELU()
        (fc2): Linear(in_features=1536, out_features=384, bias=True)
      )
    )
    (8): MultiScaleBlock(
      (norm1): LayerNorm((384,), eps=1e-06, elementwise_affine=True)
      (attn): MultiScaleAttention(
        (qkv): Linear(in_features=384, out_features=1152, bias=True)
        (proj): Linear(in_features=384, out_features=384, bias=True)
        (pool_q): Conv3d(96, 96, kernel_size=[3, 3, 3], stride=[1, 1, 1], padding=[1, 1, 1], groups=96, bias=False)
        (norm_q): LayerNorm((96,), eps=1e-06, elementwise_affine=True)
        (pool_k): Conv3d(96, 96, kernel_size=[3, 3, 3], stride=[1, 2, 2], padding=[1, 1, 1], groups=96, bias=False)
        (norm_k): LayerNorm((96,), eps=1e-06, elementwise_affine=True)
        (pool_v): Conv3d(96, 96, kernel_size=[3, 3, 3], stride=[1, 2, 2], padding=[1, 1, 1], groups=96, bias=False)
        (norm_v): LayerNorm((96,), eps=1e-06, elementwise_affine=True)
      )
      (drop_path): DropPath()
      (norm2): LayerNorm((384,), eps=1e-06, elementwise_affine=True)
      (mlp): Mlp(
        (fc1): Linear(in_features=384, out_features=1536, bias=True)
        (act): GELU()
        (fc2): Linear(in_features=1536, out_features=384, bias=True)
      )
    )
    (9): MultiScaleBlock(
      (norm1): LayerNorm((384,), eps=1e-06, elementwise_affine=True)
      (attn): MultiScaleAttention(
        (qkv): Linear(in_features=384, out_features=1152, bias=True)
        (proj): Linear(in_features=384, out_features=384, bias=True)
        (pool_q): Conv3d(96, 96, kernel_size=[3, 3, 3], stride=[1, 1, 1], padding=[1, 1, 1], groups=96, bias=False)
        (norm_q): LayerNorm((96,), eps=1e-06, elementwise_affine=True)
        (pool_k): Conv3d(96, 96, kernel_size=[3, 3, 3], stride=[1, 2, 2], padding=[1, 1, 1], groups=96, bias=False)
        (norm_k): LayerNorm((96,), eps=1e-06, elementwise_affine=True)
        (pool_v): Conv3d(96, 96, kernel_size=[3, 3, 3], stride=[1, 2, 2], padding=[1, 1, 1], groups=96, bias=False)
        (norm_v): LayerNorm((96,), eps=1e-06, elementwise_affine=True)
      )
      (drop_path): DropPath()
      (norm2): LayerNorm((384,), eps=1e-06, elementwise_affine=True)
      (mlp): Mlp(
        (fc1): Linear(in_features=384, out_features=1536, bias=True)
        (act): GELU()
        (fc2): Linear(in_features=1536, out_features=384, bias=True)
      )
    )
    (10): MultiScaleBlock(
      (norm1): LayerNorm((384,), eps=1e-06, elementwise_affine=True)
      (attn): MultiScaleAttention(
        (qkv): Linear(in_features=384, out_features=1152, bias=True)
        (proj): Linear(in_features=384, out_features=384, bias=True)
        (pool_q): Conv3d(96, 96, kernel_size=[3, 3, 3], stride=[1, 1, 1], padding=[1, 1, 1], groups=96, bias=False)
        (norm_q): LayerNorm((96,), eps=1e-06, elementwise_affine=True)
        (pool_k): Conv3d(96, 96, kernel_size=[3, 3, 3], stride=[1, 2, 2], padding=[1, 1, 1], groups=96, bias=False)
        (norm_k): LayerNorm((96,), eps=1e-06, elementwise_affine=True)
        (pool_v): Conv3d(96, 96, kernel_size=[3, 3, 3], stride=[1, 2, 2], padding=[1, 1, 1], groups=96, bias=False)
        (norm_v): LayerNorm((96,), eps=1e-06, elementwise_affine=True)
      )
      (drop_path): DropPath()
      (norm2): LayerNorm((384,), eps=1e-06, elementwise_affine=True)
      (mlp): Mlp(
        (fc1): Linear(in_features=384, out_features=1536, bias=True)
        (act): GELU()
        (fc2): Linear(in_features=1536, out_features=384, bias=True)
      )
    )
    (11): MultiScaleBlock(
      (norm1): LayerNorm((384,), eps=1e-06, elementwise_affine=True)
      (attn): MultiScaleAttention(
        (qkv): Linear(in_features=384, out_features=1152, bias=True)
        (proj): Linear(in_features=384, out_features=384, bias=True)
        (pool_q): Conv3d(96, 96, kernel_size=[3, 3, 3], stride=[1, 1, 1], padding=[1, 1, 1], groups=96, bias=False)
        (norm_q): LayerNorm((96,), eps=1e-06, elementwise_affine=True)
        (pool_k): Conv3d(96, 96, kernel_size=[3, 3, 3], stride=[1, 2, 2], padding=[1, 1, 1], groups=96, bias=False)
        (norm_k): LayerNorm((96,), eps=1e-06, elementwise_affine=True)
        (pool_v): Conv3d(96, 96, kernel_size=[3, 3, 3], stride=[1, 2, 2], padding=[1, 1, 1], groups=96, bias=False)
        (norm_v): LayerNorm((96,), eps=1e-06, elementwise_affine=True)
      )
      (drop_path): DropPath()
      (norm2): LayerNorm((384,), eps=1e-06, elementwise_affine=True)
      (mlp): Mlp(
        (fc1): Linear(in_features=384, out_features=1536, bias=True)
        (act): GELU()
        (fc2): Linear(in_features=1536, out_features=384, bias=True)
      )
    )
    (12): MultiScaleBlock(
      (norm1): LayerNorm((384,), eps=1e-06, elementwise_affine=True)
      (attn): MultiScaleAttention(
        (qkv): Linear(in_features=384, out_features=1152, bias=True)
        (proj): Linear(in_features=384, out_features=384, bias=True)
        (pool_q): Conv3d(96, 96, kernel_size=[3, 3, 3], stride=[1, 1, 1], padding=[1, 1, 1], groups=96, bias=False)
        (norm_q): LayerNorm((96,), eps=1e-06, elementwise_affine=True)
        (pool_k): Conv3d(96, 96, kernel_size=[3, 3, 3], stride=[1, 2, 2], padding=[1, 1, 1], groups=96, bias=False)
        (norm_k): LayerNorm((96,), eps=1e-06, elementwise_affine=True)
        (pool_v): Conv3d(96, 96, kernel_size=[3, 3, 3], stride=[1, 2, 2], padding=[1, 1, 1], groups=96, bias=False)
        (norm_v): LayerNorm((96,), eps=1e-06, elementwise_affine=True)
      )
      (drop_path): DropPath()
      (norm2): LayerNorm((384,), eps=1e-06, elementwise_affine=True)
      (mlp): Mlp(
        (fc1): Linear(in_features=384, out_features=1536, bias=True)
        (act): GELU()
        (fc2): Linear(in_features=1536, out_features=384, bias=True)
      )
    )
    (13): MultiScaleBlock(
      (norm1): LayerNorm((384,), eps=1e-06, elementwise_affine=True)
      (attn): MultiScaleAttention(
        (qkv): Linear(in_features=384, out_features=1152, bias=True)
        (proj): Linear(in_features=384, out_features=384, bias=True)
        (pool_q): Conv3d(96, 96, kernel_size=[3, 3, 3], stride=[1, 1, 1], padding=[1, 1, 1], groups=96, bias=False)
        (norm_q): LayerNorm((96,), eps=1e-06, elementwise_affine=True)
        (pool_k): Conv3d(96, 96, kernel_size=[3, 3, 3], stride=[1, 2, 2], padding=[1, 1, 1], groups=96, bias=False)
        (norm_k): LayerNorm((96,), eps=1e-06, elementwise_affine=True)
        (pool_v): Conv3d(96, 96, kernel_size=[3, 3, 3], stride=[1, 2, 2], padding=[1, 1, 1], groups=96, bias=False)
        (norm_v): LayerNorm((96,), eps=1e-06, elementwise_affine=True)
      )
      (drop_path): DropPath()
      (norm2): LayerNorm((384,), eps=1e-06, elementwise_affine=True)
      (mlp): Mlp(
        (fc1): Linear(in_features=384, out_features=1536, bias=True)
        (act): GELU()
        (fc2): Linear(in_features=1536, out_features=384, bias=True)
      )
    )
    (14): MultiScaleBlock(
      (norm1): LayerNorm((384,), eps=1e-06, elementwise_affine=True)
      (attn): MultiScaleAttention(
        (qkv): Linear(in_features=384, out_features=2304, bias=True)
        (proj): Linear(in_features=768, out_features=768, bias=True)
        (pool_q): Conv3d(96, 96, kernel_size=[3, 3, 3], stride=[1, 2, 2], padding=[1, 1, 1], groups=96, bias=False)
        (norm_q): LayerNorm((96,), eps=1e-06, elementwise_affine=True)
        (pool_k): Conv3d(96, 96, kernel_size=[3, 3, 3], stride=[1, 1, 1], padding=[1, 1, 1], groups=96, bias=False)
        (norm_k): LayerNorm((96,), eps=1e-06, elementwise_affine=True)
        (pool_v): Conv3d(96, 96, kernel_size=[3, 3, 3], stride=[1, 1, 1], padding=[1, 1, 1], groups=96, bias=False)
        (norm_v): LayerNorm((96,), eps=1e-06, elementwise_affine=True)
      )
      (drop_path): DropPath()
      (norm2): LayerNorm((768,), eps=1e-06, elementwise_affine=True)
      (mlp): Mlp(
        (fc1): Linear(in_features=768, out_features=3072, bias=True)
        (act): GELU()
        (fc2): Linear(in_features=3072, out_features=768, bias=True)
      )
      (proj): Linear(in_features=384, out_features=768, bias=True)
      (pool_skip): MaxPool3d(kernel_size=[1, 3, 3], stride=[1, 2, 2], padding=[0, 1, 1], dilation=1, ceil_mode=False)
    )
    (15): MultiScaleBlock(
      (norm1): LayerNorm((768,), eps=1e-06, elementwise_affine=True)
      (attn): MultiScaleAttention(
        (qkv): Linear(in_features=768, out_features=2304, bias=True)
        (proj): Linear(in_features=768, out_features=768, bias=True)
        (pool_q): Conv3d(96, 96, kernel_size=[3, 3, 3], stride=[1, 1, 1], padding=[1, 1, 1], groups=96, bias=False)
        (norm_q): LayerNorm((96,), eps=1e-06, elementwise_affine=True)
        (pool_k): Conv3d(96, 96, kernel_size=[3, 3, 3], stride=[1, 1, 1], padding=[1, 1, 1], groups=96, bias=False)
        (norm_k): LayerNorm((96,), eps=1e-06, elementwise_affine=True)
        (pool_v): Conv3d(96, 96, kernel_size=[3, 3, 3], stride=[1, 1, 1], padding=[1, 1, 1], groups=96, bias=False)
        (norm_v): LayerNorm((96,), eps=1e-06, elementwise_affine=True)
      )
      (drop_path): DropPath()
      (norm2): LayerNorm((768,), eps=1e-06, elementwise_affine=True)
      (mlp): Mlp(
        (fc1): Linear(in_features=768, out_features=3072, bias=True)
        (act): GELU()
        (fc2): Linear(in_features=3072, out_features=768, bias=True)
      )
    )
  )
  (norm): LayerNorm((768,), eps=1e-06, elementwise_affine=True)
  (head): TransformerBasicHead(
    (dropout): Dropout(p=0.5, inplace=False)
    (projection): Linear(in_features=768, out_features=7, bias=True)
    (act): Softmax(dim=1)
  )
)
[01/26 22:21:03][INFO] misc.py:  188: Params: 34,235,527
[01/26 22:21:03][INFO] misc.py:  189: Mem: 0.12789344787597656 MB
[01/26 22:21:07][WARNING] jit_analysis.py:  499: Unsupported operator aten::add_ encountered 131 time(s)
[01/26 22:21:07][WARNING] jit_analysis.py:  499: Unsupported operator aten::mul encountered 489 time(s)
…
           'CHECKPOINT_TYPE': 'pytorch',
           'DATASET': 'kinetics',
           'ENABLE': True,
           'EVAL_PERIOD': 10,
           'KILL_LOSS_EXPLOSION_FACTOR': 0.0,
           'MIXED_PRECISION': False},
 'VIS_MASK': CfgNode({'ENABLE': False}),
 'X3D': {'BN_LIN5': False,
         'BOTTLENECK_FACTOR': 1.0,
         'CHANNELWISE_3x3x3': True,
         'DEPTH_FACTOR': 1.0,
         'DIM_C1': 12,
         'DIM_C5': 2048,
         'SCALE_RES2': False,
         'WIDTH_FACTOR': 1.0}}
[01/27 01:54:31][INFO] misc.py:  186: Model:
MViT_Adapter(
  (base_model): MViT_cbm(
    (patch_embed): PatchEmbed(
      (proj): Conv3d(3, 96, kernel_size=[3, 7, 7], stride=[2, 4, 4], padding=[1, 3, 3])
    )
    (blocks): ModuleList(
      (0): MultiScaleBlock(
        (norm1): LayerNorm((96,), eps=1e-06, elementwise_affine=True)
        (attn): MultiScaleAttention(
          (qkv): Linear(in_features=96, out_features=288, bias=True)
          (proj): Linear(in_features=96, out_features=96, bias=True)
          (pool_q): Conv3d(96, 96, kernel_size=[3, 3, 3], stride=[1, 1, 1], padding=[1, 1, 1], groups=96, bias=False)
          (norm_q): LayerNorm((96,), eps=1e-06, elementwise_affine=True)
          (pool_k): Conv3d(96, 96, kernel_size=[3, 3, 3], stride=[1, 8, 8], padding=[1, 1, 1], groups=96, bias=False)
          (norm_k): LayerNorm((96,), eps=1e-06, elementwise_affine=True)
          (pool_v): Conv3d(96, 96, kernel_size=[3, 3, 3], stride=[1, 8, 8], padding=[1, 1, 1], groups=96, bias=False)
          (norm_v): LayerNorm((96,), eps=1e-06, elementwise_affine=True)
        )
        (drop_path): Identity()
        (norm2): LayerNorm((96,), eps=1e-06, elementwise_affine=True)
        (mlp): Mlp(
          (fc1): Linear(in_features=96, out_features=384, bias=True)
          (act): GELU()
          (fc2): Linear(in_features=384, out_features=96, bias=True)
        )
      )
      (1): MultiScaleBlock(
        (norm1): LayerNorm((96,), eps=1e-06, elementwise_affine=True)
        (attn): MultiScaleAttention(
          (qkv): Linear(in_features=96, out_features=576, bias=True)
          (proj): Linear(in_features=192, out_features=192, bias=True)
          (pool_q): Conv3d(96, 96, kernel_size=[3, 3, 3], stride=[1, 2, 2], padding=[1, 1, 1], groups=96, bias=False)
          (norm_q): LayerNorm((96,), eps=1e-06, elementwise_affine=True)
          (pool_k): Conv3d(96, 96, kernel_size=[3, 3, 3], stride=[1, 4, 4], padding=[1, 1, 1], groups=96, bias=False)
          (norm_k): LayerNorm((96,), eps=1e-06, elementwise_affine=True)
          (pool_v): Conv3d(96, 96, kernel_size=[3, 3, 3], stride=[1, 4, 4], padding=[1, 1, 1], groups=96, bias=False)
          (norm_v): LayerNorm((96,), eps=1e-06, elementwise_affine=True)
        )
        (drop_path): DropPath()
        (norm2): LayerNorm((192,), eps=1e-06, elementwise_affine=True)
        (mlp): Mlp(
          (fc1): Linear(in_features=192, out_features=768, bias=True)
          (act): GELU()
          (fc2): Linear(in_features=768, out_features=192, bias=True)
        )
        (proj): Linear(in_features=96, out_features=192, bias=True)
        (pool_skip): MaxPool3d(kernel_size=[1, 3, 3], stride=[1, 2, 2], padding=[0, 1, 1], dilation=1, ceil_mode=False)
      )
      (2): MultiScaleBlock(
        (norm1): LayerNorm((192,), eps=1e-06, elementwise_affine=True)
        (attn): MultiScaleAttention(
          (qkv): Linear(in_features=192, out_features=576, bias=True)
          (proj): Linear(in_features=192, out_features=192, bias=True)
          (pool_q): Conv3d(96, 96, kernel_size=[3, 3, 3], stride=[1, 1, 1], padding=[1, 1, 1], groups=96, bias=False)
          (norm_q): LayerNorm((96,), eps=1e-06, elementwise_affine=True)
          (pool_k): Conv3d(96, 96, kernel_size=[3, 3, 3], stride=[1, 4, 4], padding=[1, 1, 1], groups=96, bias=False)
          (norm_k): LayerNorm((96,), eps=1e-06, elementwise_affine=True)
          (pool_v): Conv3d(96, 96, kernel_size=[3, 3, 3], stride=[1, 4, 4], padding=[1, 1, 1], groups=96, bias=False)
          (norm_v): LayerNorm((96,), eps=1e-06, elementwise_affine=True)
        )
        (drop_path): DropPath()
        (norm2): LayerNorm((192,), eps=1e-06, elementwise_affine=True)
        (mlp): Mlp(
          (fc1): Linear(in_features=192, out_features=768, bias=True)
          (act): GELU()
          (fc2): Linear(in_features=768, out_features=192, bias=True)
        )
      )
      (3): MultiScaleBlock(
        (norm1): LayerNorm((192,), eps=1e-06, elementwise_affine=True)
        (attn): MultiScaleAttention(
          (qkv): Linear(in_features=192, out_features=1152, bias=True)
          (proj): Linear(in_features=384, out_features=384, bias=True)
          (pool_q): Conv3d(96, 96, kernel_size=[3, 3, 3], stride=[1, 2, 2], padding=[1, 1, 1], groups=96, bias=False)
          (norm_q): LayerNorm((96,), eps=1e-06, elementwise_affine=True)
          (pool_k): Conv3d(96, 96, kernel_size=[3, 3, 3], stride=[1, 2, 2], padding=[1, 1, 1], groups=96, bias=False)
          (norm_k): LayerNorm((96,), eps=1e-06, elementwise_affine=True)
          (pool_v): Conv3d(96, 96, kernel_size=[3, 3, 3], stride=[1, 2, 2], padding=[1, 1, 1], groups=96, bias=False)
          (norm_v): LayerNorm((96,), eps=1e-06, elementwise_affine=True)
        )
        (drop_path): DropPath()
        (norm2): LayerNorm((384,), eps=1e-06, elementwise_affine=True)
        (mlp): Mlp(
          (fc1): Linear(in_features=384, out_features=1536, bias=True)
          (act): GELU()
          (fc2): Linear(in_features=1536, out_features=384, bias=True)
        )
        (proj): Linear(in_features=192, out_features=384, bias=True)
        (pool_skip): MaxPool3d(kernel_size=[1, 3, 3], stride=[1, 2, 2], padding=[0, 1, 1], dilation=1, ceil_mode=False)
      )
      (4): MultiScaleBlock(
        (norm1): LayerNorm((384,), eps=1e-06, elementwise_affine=True)
        (attn): MultiScaleAttention(
          (qkv): Linear(in_features=384, out_features=1152, bias=True)
          (proj): Linear(in_features=384, out_features=384, bias=True)
          (pool_q): Conv3d(96, 96, kernel_size=[3, 3, 3], stride=[1, 1, 1], padding=[1, 1, 1], groups=96, bias=False)
          (norm_q): LayerNorm((96,), eps=1e-06, elementwise_affine=True)
          (pool_k): Conv3d(96, 96, kernel_size=[3, 3, 3], stride=[1, 2, 2], padding=[1, 1, 1], groups=96, bias=False)
          (norm_k): LayerNorm((96,), eps=1e-06, elementwise_affine=True)
          (pool_v): Conv3d(96, 96, kernel_size=[3, 3, 3], stride=[1, 2, 2], padding=[1, 1, 1], groups=96, bias=False)
          (norm_v): LayerNorm((96,), eps=1e-06, elementwise_affine=True)
        )
        (drop_path): DropPath()
        (norm2): LayerNorm((384,), eps=1e-06, elementwise_affine=True)
        (mlp): Mlp(
          (fc1): Linear(in_features=384, out_features=1536, bias=True)
          (act): GELU()
          (fc2): Linear(in_features=1536, out_features=384, bias=True)
        )
      )
      (5): MultiScaleBlock(
        (norm1): LayerNorm((384,), eps=1e-06, elementwise_affine=True)
        (attn): MultiScaleAttention(
          (qkv): Linear(in_features=384, out_features=1152, bias=True)
          (proj): Linear(in_features=384, out_features=384, bias=True)
          (pool_q): Conv3d(96, 96, kernel_size=[3, 3, 3], stride=[1, 1, 1], padding=[1, 1, 1], groups=96, bias=False)
          (norm_q): LayerNorm((96,), eps=1e-06, elementwise_affine=True)
          (pool_k): Conv3d(96, 96, kernel_size=[3, 3, 3], stride=[1, 2, 2], padding=[1, 1, 1], groups=96, bias=False)
          (norm_k): LayerNorm((96,), eps=1e-06, elementwise_affine=True)
          (pool_v): Conv3d(96, 96, kernel_size=[3, 3, 3], stride=[1, 2, 2], padding=[1, 1, 1], groups=96, bias=False)
          (norm_v): LayerNorm((96,), eps=1e-06, elementwise_affine=True)
        )
        (drop_path): DropPath()
        (norm2): LayerNorm((384,), eps=1e-06, elementwise_affine=True)
        (mlp): Mlp(
          (fc1): Linear(in_features=384, out_features=1536, bias=True)
          (act): GELU()
          (fc2): Linear(in_features=1536, out_features=384, bias=True)
        )
      )
      (6): MultiScaleBlock(
        (norm1): LayerNorm((384,), eps=1e-06, elementwise_affine=True)
        (attn): MultiScaleAttention(
          (qkv): Linear(in_features=384, out_features=1152, bias=True)
          (proj): Linear(in_features=384, out_features=384, bias=True)
          (pool_q): Conv3d(96, 96, kernel_size=[3, 3, 3], stride=[1, 1, 1], padding=[1, 1, 1], groups=96, bias=False)
          (norm_q): LayerNorm((96,), eps=1e-06, elementwise_affine=True)
          (pool_k): Conv3d(96, 96, kernel_size=[3, 3, 3], stride=[1, 2, 2], padding=[1, 1, 1], groups=96, bias=False)
          (norm_k): LayerNorm((96,), eps=1e-06, elementwise_affine=True)
          (pool_v): Conv3d(96, 96, kernel_size=[3, 3, 3], stride=[1, 2, 2], padding=[1, 1, 1], groups=96, bias=False)
          (norm_v): LayerNorm((96,), eps=1e-06, elementwise_affine=True)
        )
        (drop_path): DropPath()
        (norm2): LayerNorm((384,), eps=1e-06, elementwise_affine=True)
        (mlp): Mlp(
          (fc1): Linear(in_features=384, out_features=1536, bias=True)
          (act): GELU()
          (fc2): Linear(in_features=1536, out_features=384, bias=True)
        )
      )
      (7): MultiScaleBlock(
        (norm1): LayerNorm((384,), eps=1e-06, elementwise_affine=True)
        (attn): MultiScaleAttention(
          (qkv): Linear(in_features=384, out_features=1152, bias=True)
          (proj): Linear(in_features=384, out_features=384, bias=True)
          (pool_q): Conv3d(96, 96, kernel_size=[3, 3, 3], stride=[1, 1, 1], padding=[1, 1, 1], groups=96, bias=False)
          (norm_q): LayerNorm((96,), eps=1e-06, elementwise_affine=True)
          (pool_k): Conv3d(96, 96, kernel_size=[3, 3, 3], stride=[1, 2, 2], padding=[1, 1, 1], groups=96, bias=False)
          (norm_k): LayerNorm((96,), eps=1e-06, elementwise_affine=True)
          (pool_v): Conv3d(96, 96, kernel_size=[3, 3, 3], stride=[1, 2, 2], padding=[1, 1, 1], groups=96, bias=False)
          (norm_v): LayerNorm((96,), eps=1e-06, elementwise_affine=True)
        )
        (drop_path): DropPath()
        (norm2): LayerNorm((384,), eps=1e-06, elementwise_affine=True)
        (mlp): Mlp(
          (fc1): Linear(in_features=384, out_features=1536, bias=True)
          (act): GELU()
          (fc2): Linear(in_features=1536, out_features=384, bias=True)
        )
      )
      (8): MultiScaleBlock(
        (norm1): LayerNorm((384,), eps=1e-06, elementwise_affine=True)
        (attn): MultiScaleAttention(
          (qkv): Linear(in_features=384, out_features=1152, bias=True)
          (proj): Linear(in_features=384, out_features=384, bias=True)
          (pool_q): Conv3d(96, 96, kernel_size=[3, 3, 3], stride=[1, 1, 1], padding=[1, 1, 1], groups=96, bias=False)
          (norm_q): LayerNorm((96,), eps=1e-06, elementwise_affine=True)
          (pool_k): Conv3d(96, 96, kernel_size=[3, 3, 3], stride=[1, 2, 2], padding=[1, 1, 1], groups=96, bias=False)
          (norm_k): LayerNorm((96,), eps=1e-06, elementwise_affine=True)
          (pool_v): Conv3d(96, 96, kernel_size=[3, 3, 3], stride=[1, 2, 2], padding=[1, 1, 1], groups=96, bias=False)
          (norm_v): LayerNorm((96,), eps=1e-06, elementwise_affine=True)
        )
        (drop_path): DropPath()
        (norm2): LayerNorm((384,), eps=1e-06, elementwise_affine=True)
        (mlp): Mlp(
          (fc1): Linear(in_features=384, out_features=1536, bias=True)
          (act): GELU()
          (fc2): Linear(in_features=1536, out_features=384, bias=True)
        )
      )
      (9): MultiScaleBlock(
        (norm1): LayerNorm((384,), eps=1e-06, elementwise_affine=True)
        (attn): MultiScaleAttention(
          (qkv): Linear(in_features=384, out_features=1152, bias=True)
          (proj): Linear(in_features=384, out_features=384, bias=True)
          (pool_q): Conv3d(96, 96, kernel_size=[3, 3, 3], stride=[1, 1, 1], padding=[1, 1, 1], groups=96, bias=False)
          (norm_q): LayerNorm((96,), eps=1e-06, elementwise_affine=True)
          (pool_k): Conv3d(96, 96, kernel_size=[3, 3, 3], stride=[1, 2, 2], padding=[1, 1, 1], groups=96, bias=False)
          (norm_k): LayerNorm((96,), eps=1e-06, elementwise_affine=True)
          (pool_v): Conv3d(96, 96, kernel_size=[3, 3, 3], stride=[1, 2, 2], padding=[1, 1, 1], groups=96, bias=False)
          (norm_v): LayerNorm((96,), eps=1e-06, elementwise_affine=True)
        )
        (drop_path): DropPath()
        (norm2): LayerNorm((384,), eps=1e-06, elementwise_affine=True)
        (mlp): Mlp(
          (fc1): Linear(in_features=384, out_features=1536, bias=True)
          (act): GELU()
          (fc2): Linear(in_features=1536, out_features=384, bias=True)
        )
      )
      (10): MultiScaleBlock(
        (norm1): LayerNorm((384,), eps=1e-06, elementwise_affine=True)
        (attn): MultiScaleAttention(
          (qkv): Linear(in_features=384, out_features=1152, bias=True)
          (proj): Linear(in_features=384, out_features=384, bias=True)
          (pool_q): Conv3d(96, 96, kernel_size=[3, 3, 3], stride=[1, 1, 1], padding=[1, 1, 1], groups=96, bias=False)
          (norm_q): LayerNorm((96,), eps=1e-06, elementwise_affine=True)
          (pool_k): Conv3d(96, 96, kernel_size=[3, 3, 3], stride=[1, 2, 2], padding=[1, 1, 1], groups=96, bias=False)
          (norm_k): LayerNorm((96,), eps=1e-06, elementwise_affine=True)
          (pool_v): Conv3d(96, 96, kernel_size=[3, 3, 3], stride=[1, 2, 2], padding=[1, 1, 1], groups=96, bias=False)
          (norm_v): LayerNorm((96,), eps=1e-06, elementwise_affine=True)
        )
        (drop_path): DropPath()
        (norm2): LayerNorm((384,), eps=1e-06, elementwise_affine=True)
        (mlp): Mlp(
          (fc1): Linear(in_features=384, out_features=1536, bias=True)
          (act): GELU()
          (fc2): Linear(in_features=1536, out_features=384, bias=True)
        )
      )
      (11): MultiScaleBlock(
        (norm1): LayerNorm((384,), eps=1e-06, elementwise_affine=True)
        (attn): MultiScaleAttention(
          (qkv): Linear(in_features=384, out_features=1152, bias=True)
          (proj): Linear(in_features=384, out_features=384, bias=True)
          (pool_q): Conv3d(96, 96, kernel_size=[3, 3, 3], stride=[1, 1, 1], padding=[1, 1, 1], groups=96, bias=False)
          (norm_q): LayerNorm((96,), eps=1e-06, elementwise_affine=True)
          (pool_k): Conv3d(96, 96, kernel_size=[3, 3, 3], stride=[1, 2, 2], padding=[1, 1, 1], groups=96, bias=False)
          (norm_k): LayerNorm((96,), eps=1e-06, elementwise_affine=True)
          (pool_v): Conv3d(96, 96, kernel_size=[3, 3, 3], stride=[1, 2, 2], padding=[1, 1, 1], groups=96, bias=False)
          (norm_v): LayerNorm((96,), eps=1e-06, elementwise_affine=True)
        )
        (drop_path): DropPath()
        (norm2): LayerNorm((384,), eps=1e-06, elementwise_affine=True)
        (mlp): Mlp(
          (fc1): Linear(in_features=384, out_features=1536, bias=True)
          (act): GELU()
          (fc2): Linear(in_features=1536, out_features=384, bias=True)
        )
      )
      (12): MultiScaleBlock(
        (norm1): LayerNorm((384,), eps=1e-06, elementwise_affine=True)
        (attn): MultiScaleAttention(
          (qkv): Linear(in_features=384, out_features=1152, bias=True)
          (proj): Linear(in_features=384, out_features=384, bias=True)
          (pool_q): Conv3d(96, 96, kernel_size=[3, 3, 3], stride=[1, 1, 1], padding=[1, 1, 1], groups=96, bias=False)
          (norm_q): LayerNorm((96,), eps=1e-06, elementwise_affine=True)
          (pool_k): Conv3d(96, 96, kernel_size=[3, 3, 3], stride=[1, 2, 2], padding=[1, 1, 1], groups=96, bias=False)
          (norm_k): LayerNorm((96,), eps=1e-06, elementwise_affine=True)
          (pool_v): Conv3d(96, 96, kernel_size=[3, 3, 3], stride=[1, 2, 2], padding=[1, 1, 1], groups=96, bias=False)
          (norm_v): LayerNorm((96,), eps=1e-06, elementwise_affine=True)
        )
        (drop_path): DropPath()
        (norm2): LayerNorm((384,), eps=1e-06, elementwise_affine=True)
        (mlp): Mlp(
          (fc1): Linear(in_features=384, out_features=1536, bias=True)
          (act): GELU()
          (fc2): Linear(in_features=1536, out_features=384, bias=True)
        )
      )
      (13): MultiScaleBlock(
        (norm1): LayerNorm((384,), eps=1e-06, elementwise_affine=True)
        (attn): MultiScaleAttention(
          (qkv): Linear(in_features=384, out_features=1152, bias=True)
          (proj): Linear(in_features=384, out_features=384, bias=True)
          (pool_q): Conv3d(96, 96, kernel_size=[3, 3, 3], stride=[1, 1, 1], padding=[1, 1, 1], groups=96, bias=False)
          (norm_q): LayerNorm((96,), eps=1e-06, elementwise_affine=True)
          (pool_k): Conv3d(96, 96, kernel_size=[3, 3, 3], stride=[1, 2, 2], padding=[1, 1, 1], groups=96, bias=False)
          (norm_k): LayerNorm((96,), eps=1e-06, elementwise_affine=True)
          (pool_v): Conv3d(96, 96, kernel_size=[3, 3, 3], stride=[1, 2, 2], padding=[1, 1, 1], groups=96, bias=False)
          (norm_v): LayerNorm((96,), eps=1e-06, elementwise_affine=True)
        )
        (drop_path): DropPath()
        (norm2): LayerNorm((384,), eps=1e-06, elementwise_affine=True)
        (mlp): Mlp(
          (fc1): Linear(in_features=384, out_features=1536, bias=True)
          (act): GELU()
          (fc2): Linear(in_features=1536, out_features=384, bias=True)
        )
      )
      (14): MultiScaleBlock(
        (norm1): LayerNorm((384,), eps=1e-06, elementwise_affine=True)
        (attn): MultiScaleAttention(
          (qkv): Linear(in_features=384, out_features=2304, bias=True)
          (proj): Linear(in_features=768, out_features=768, bias=True)
          (pool_q): Conv3d(96, 96, kernel_size=[3, 3, 3], stride=[1, 2, 2], padding=[1, 1, 1], groups=96, bias=False)
          (norm_q): LayerNorm((96,), eps=1e-06, elementwise_affine=True)
          (pool_k): Conv3d(96, 96, kernel_size=[3, 3, 3], stride=[1, 1, 1], padding=[1, 1, 1], groups=96, bias=False)
          (norm_k): LayerNorm((96,), eps=1e-06, elementwise_affine=True)
          (pool_v): Conv3d(96, 96, kernel_size=[3, 3, 3], stride=[1, 1, 1], padding=[1, 1, 1], groups=96, bias=False)
          (norm_v): LayerNorm((96,), eps=1e-06, elementwise_affine=True)
        )
        (drop_path): DropPath()
        (norm2): LayerNorm((768,), eps=1e-06, elementwise_affine=True)
        (mlp): Mlp(
          (fc1): Linear(in_features=768, out_features=3072, bias=True)
          (act): GELU()
          (fc2): Linear(in_features=3072, out_features=768, bias=True)
        )
        (proj): Linear(in_features=384, out_features=768, bias=True)
        (pool_skip): MaxPool3d(kernel_size=[1, 3, 3], stride=[1, 2, 2], padding=[0, 1, 1], dilation=1, ceil_mode=False)
      )
      (15): MultiScaleBlock(
        (norm1): LayerNorm((768,), eps=1e-06, elementwise_affine=True)
        (attn): MultiScaleAttention(
          (qkv): Linear(in_features=768, out_features=2304, bias=True)
          (proj): Linear(in_features=768, out_features=768, bias=True)
          (pool_q): Conv3d(96, 96, kernel_size=[3, 3, 3], stride=[1, 1, 1], padding=[1, 1, 1], groups=96, bias=False)
          (norm_q): LayerNorm((96,), eps=1e-06, elementwise_affine=True)
          (pool_k): Conv3d(96, 96, kernel_size=[3, 3, 3], stride=[1, 1, 1], padding=[1, 1, 1], groups=96, bias=False)
          (norm_k): LayerNorm((96,), eps=1e-06, elementwise_affine=True)
          (pool_v): Conv3d(96, 96, kernel_size=[3, 3, 3], stride=[1, 1, 1], padding=[1, 1, 1], groups=96, bias=False)
          (norm_v): LayerNorm((96,), eps=1e-06, elementwise_affine=True)
        )
        (drop_path): DropPath()
        (norm2): LayerNorm((768,), eps=1e-06, elementwise_affine=True)
        (mlp): Mlp(
          (fc1): Linear(in_features=768, out_features=3072, bias=True)
          (act): GELU()
          (fc2): Linear(in_features=3072, out_features=768, bias=True)
        )
      )
    )
    (norm): LayerNorm((768,), eps=1e-06, elementwise_affine=True)
    (head): TransformerBasicHead(
      (dropout): Dropout(p=0.5, inplace=False)
      (projection): Linear(in_features=768, out_features=7, bias=True)
      (act): Softmax(dim=1)
    )
    (model1): MViT(
      (patch_embed): PatchEmbed(
        (proj): Conv3d(3, 96, kernel_size=[3, 7, 7], stride=[2, 4, 4], padding=[1, 3, 3])
      )
      (blocks): ModuleList(
        (0): MultiScaleBlock(
          (norm1): LayerNorm((96,), eps=1e-06, elementwise_affine=True)
          (attn): MultiScaleAttention(
            (qkv): Linear(in_features=96, out_features=288, bias=True)
            (proj): Linear(in_features=96, out_features=96, bias=True)
            (pool_q): Conv3d(96, 96, kernel_size=[3, 3, 3], stride=[1, 1, 1], padding=[1, 1, 1], groups=96, bias=False)
            (norm_q): LayerNorm((96,), eps=1e-06, elementwise_affine=True)
            (pool_k): Conv3d(96, 96, kernel_size=[3, 3, 3], stride=[1, 8, 8], padding=[1, 1, 1], groups=96, bias=False)
            (norm_k): LayerNorm((96,), eps=1e-06, elementwise_affine=True)
            (pool_v): Conv3d(96, 96, kernel_size=[3, 3, 3], stride=[1, 8, 8], padding=[1, 1, 1], groups=96, bias=False)
            (norm_v): LayerNorm((96,), eps=1e-06, elementwise_affine=True)
          )
          (drop_path): Identity()
          (norm2): LayerNorm((96,), eps=1e-06, elementwise_affine=True)
          (mlp): Mlp(
            (fc1): Linear(in_features=96, out_features=384, bias=True)
            (act): GELU()
            (fc2): Linear(in_features=384, out_features=96, bias=True)
          )
        )
        (1): MultiScaleBlock(
          (norm1): LayerNorm((96,), eps=1e-06, elementwise_affine=True)
          (attn): MultiScaleAttention(
            (qkv): Linear(in_features=96, out_features=576, bias=True)
            (proj): Linear(in_features=192, out_features=192, bias=True)
            (pool_q): Conv3d(96, 96, kernel_size=[3, 3, 3], stride=[1, 2, 2], padding=[1, 1, 1], groups=96, bias=False)
            (norm_q): LayerNorm((96,), eps=1e-06, elementwise_affine=True)
            (pool_k): Conv3d(96, 96, kernel_size=[3, 3, 3], stride=[1, 4, 4], padding=[1, 1, 1], groups=96, bias=False)
            (norm_k): LayerNorm((96,), eps=1e-06, elementwise_affine=True)
            (pool_v): Conv3d(96, 96, kernel_size=[3, 3, 3], stride=[1, 4, 4], padding=[1, 1, 1], groups=96, bias=False)
            (norm_v): LayerNorm((96,), eps=1e-06, elementwise_affine=True)
          )
          (drop_path): DropPath()
          (norm2): LayerNorm((192,), eps=1e-06, elementwise_affine=True)
          (mlp): Mlp(
            (fc1): Linear(in_features=192, out_features=768, bias=True)
            (act): GELU()
            (fc2): Linear(in_features=768, out_features=192, bias=True)
          )
          (proj): Linear(in_features=96, out_features=192, bias=True)
          (pool_skip): MaxPool3d(kernel_size=[1, 3, 3], stride=[1, 2, 2], padding=[0, 1, 1], dilation=1, ceil_mode=False)
        )
        (2): MultiScaleBlock(
          (norm1): LayerNorm((192,), eps=1e-06, elementwise_affine=True)
          (attn): MultiScaleAttention(
            (qkv): Linear(in_features=192, out_features=576, bias=True)
            (proj): Linear(in_features=192, out_features=192, bias=True)
            (pool_q): Conv3d(96, 96, kernel_size=[3, 3, 3], stride=[1, 1, 1], padding=[1, 1, 1], groups=96, bias=False)
            (norm_q): LayerNorm((96,), eps=1e-06, elementwise_affine=True)
            (pool_k): Conv3d(96, 96, kernel_size=[3, 3, 3], stride=[1, 4, 4], padding=[1, 1, 1], groups=96, bias=False)
            (norm_k): LayerNorm((96,), eps=1e-06, elementwise_affine=True)
            (pool_v): Conv3d(96, 96, kernel_size=[3, 3, 3], stride=[1, 4, 4], padding=[1, 1, 1], groups=96, bias=False)
            (norm_v): LayerNorm((96,), eps=1e-06, elementwise_affine=True)
          )
          (drop_path): DropPath()
          (norm2): LayerNorm((192,), eps=1e-06, elementwise_affine=True)
          (mlp): Mlp(
            (fc1): Linear(in_features=192, out_features=768, bias=True)
            (act): GELU()
            (fc2): Linear(in_features=768, out_features=192, bias=True)
          )
        )
        (3): MultiScaleBlock(
          (norm1): LayerNorm((192,), eps=1e-06, elementwise_affine=True)
          (attn): MultiScaleAttention(
            (qkv): Linear(in_features=192, out_features=1152, bias=True)
            (proj): Linear(in_features=384, out_features=384, bias=True)
            (pool_q): Conv3d(96, 96, kernel_size=[3, 3, 3], stride=[1, 2, 2], padding=[1, 1, 1], groups=96, bias=False)
            (norm_q): LayerNorm((96,), eps=1e-06, elementwise_affine=True)
            (pool_k): Conv3d(96, 96, kernel_size=[3, 3, 3], stride=[1, 2, 2], padding=[1, 1, 1], groups=96, bias=False)
            (norm_k): LayerNorm((96,), eps=1e-06, elementwise_affine=True)
            (pool_v): Conv3d(96, 96, kernel_size=[3, 3, 3], stride=[1, 2, 2], padding=[1, 1, 1], groups=96, bias=False)
            (norm_v): LayerNorm((96,), eps=1e-06, elementwise_affine=True)
          )
          (drop_path): DropPath()
          (norm2): LayerNorm((384,), eps=1e-06, elementwise_affine=True)
          (mlp): Mlp(
            (fc1): Linear(in_features=384, out_features=1536, bias=True)
            (act): GELU()
            (fc2): Linear(in_features=1536, out_features=384, bias=True)
          )
          (proj): Linear(in_features=192, out_features=384, bias=True)
          (pool_skip): MaxPool3d(kernel_size=[1, 3, 3], stride=[1, 2, 2], padding=[0, 1, 1], dilation=1, ceil_mode=False)
        )
        (4): MultiScaleBlock(
          (norm1): LayerNorm((384,), eps=1e-06, elementwise_affine=True)
          (attn): MultiScaleAttention(
            (qkv): Linear(in_features=384, out_features=1152, bias=True)
            (proj): Linear(in_features=384, out_features=384, bias=True)
            (pool_q): Conv3d(96, 96, kernel_size=[3, 3, 3], stride=[1, 1, 1], padding=[1, 1, 1], groups=96, bias=False)
            (norm_q): LayerNorm((96,), eps=1e-06, elementwise_affine=True)
            (pool_k): Conv3d(96, 96, kernel_size=[3, 3, 3], stride=[1, 2, 2], padding=[1, 1, 1], groups=96, bias=False)
            (norm_k): LayerNorm((96,), eps=1e-06, elementwise_affine=True)
            (pool_v): Conv3d(96, 96, kernel_size=[3, 3, 3], stride=[1, 2, 2], padding=[1, 1, 1], groups=96, bias=False)
            (norm_v): LayerNorm((96,), eps=1e-06, elementwise_affine=True)
          )
          (drop_path): DropPath()
          (norm2): LayerNorm((384,), eps=1e-06, elementwise_affine=True)
          (mlp): Mlp(
            (fc1): Linear(in_features=384, out_features=1536, bias=True)
            (act): GELU()
            (fc2): Linear(in_features=1536, out_features=384, bias=True)
          )
        )
        (5): MultiScaleBlock(
          (norm1): LayerNorm((384,), eps=1e-06, elementwise_affine=True)
          (attn): MultiScaleAttention(
            (qkv): Linear(in_features=384, out_features=1152, bias=True)
            (proj): Linear(in_features=384, out_features=384, bias=True)
            (pool_q): Conv3d(96, 96, kernel_size=[3, 3, 3], stride=[1, 1, 1], padding=[1, 1, 1], groups=96, bias=False)
            (norm_q): LayerNorm((96,), eps=1e-06, elementwise_affine=True)
            (pool_k): Conv3d(96, 96, kernel_size=[3, 3, 3], stride=[1, 2, 2], padding=[1, 1, 1], groups=96, bias=False)
            (norm_k): LayerNorm((96,), eps=1e-06, elementwise_affine=True)
            (pool_v): Conv3d(96, 96, kernel_size=[3, 3, 3], stride=[1, 2, 2], padding=[1, 1, 1], groups=96, bias=False)
            (norm_v): LayerNorm((96,), eps=1e-06, elementwise_affine=True)
          )
          (drop_path): DropPath()
          (norm2): LayerNorm((384,), eps=1e-06, elementwise_affine=True)
          (mlp): Mlp(
            (fc1): Linear(in_features=384, out_features=1536, bias=True)
            (act): GELU()
            (fc2): Linear(in_features=1536, out_features=384, bias=True)
          )
        )
        (6): MultiScaleBlock(
          (norm1): LayerNorm((384,), eps=1e-06, elementwise_affine=True)
          (attn): MultiScaleAttention(
            (qkv): Linear(in_features=384, out_features=1152, bias=True)
            (proj): Linear(in_features=384, out_features=384, bias=True)
            (pool_q): Conv3d(96, 96, kernel_size=[3, 3, 3], stride=[1, 1, 1], padding=[1, 1, 1], groups=96, bias=False)
            (norm_q): LayerNorm((96,), eps=1e-06, elementwise_affine=True)
            (pool_k): Conv3d(96, 96, kernel_size=[3, 3, 3], stride=[1, 2, 2], padding=[1, 1, 1], groups=96, bias=False)
            (norm_k): LayerNorm((96,), eps=1e-06, elementwise_affine=True)
            (pool_v): Conv3d(96, 96, kernel_size=[3, 3, 3], stride=[1, 2, 2], padding=[1, 1, 1], groups=96, bias=False)
            (norm_v): LayerNorm((96,), eps=1e-06, elementwise_affine=True)
          )
          (drop_path): DropPath()
          (norm2): LayerNorm((384,), eps=1e-06, elementwise_affine=True)
          (mlp): Mlp(
            (fc1): Linear(in_features=384, out_features=1536, bias=True)
            (act): GELU()
            (fc2): Linear(in_features=1536, out_features=384, bias=True)
          )
        )
        (7): MultiScaleBlock(
          (norm1): LayerNorm((384,), eps=1e-06, elementwise_affine=True)
          (attn): MultiScaleAttention(
            (qkv): Linear(in_features=384, out_features=1152, bias=True)
            (proj): Linear(in_features=384, out_features=384, bias=True)
            (pool_q): Conv3d(96, 96, kernel_size=[3, 3, 3], stride=[1, 1, 1], padding=[1, 1, 1], groups=96, bias=False)
            (norm_q): LayerNorm((96,), eps=1e-06, elementwise_affine=True)
            (pool_k): Conv3d(96, 96, kernel_size=[3, 3, 3], stride=[1, 2, 2], padding=[1, 1, 1], groups=96, bias=False)
            (norm_k): LayerNorm((96,), eps=1e-06, elementwise_affine=True)
            (pool_v): Conv3d(96, 96, kernel_size=[3, 3, 3], stride=[1, 2, 2], padding=[1, 1, 1], groups=96, bias=False)
            (norm_v): LayerNorm((96,), eps=1e-06, elementwise_affine=True)
          )
          (drop_path): DropPath()
          (norm2): LayerNorm((384,), eps=1e-06, elementwise_affine=True)
          (mlp): Mlp(
            (fc1): Linear(in_features=384, out_features=1536, bias=True)
            (act): GELU()
            (fc2): Linear(in_features=1536, out_features=384, bias=True)
          )
        )
        (8): MultiScaleBlock(
          (norm1): LayerNorm((384,), eps=1e-06, elementwise_affine=True)
          (attn): MultiScaleAttention(
            (qkv): Linear(in_features=384, out_features=1152, bias=True)
            (proj): Linear(in_features=384, out_features=384, bias=True)
            (pool_q): Conv3d(96, 96, kernel_size=[3, 3, 3], stride=[1, 1, 1], padding=[1, 1, 1], groups=96, bias=False)
            (norm_q): LayerNorm((96,), eps=1e-06, elementwise_affine=True)
            (pool_k): Conv3d(96, 96, kernel_size=[3, 3, 3], stride=[1, 2, 2], padding=[1, 1, 1], groups=96, bias=False)
            (norm_k): LayerNorm((96,), eps=1e-06, elementwise_affine=True)
            (pool_v): Conv3d(96, 96, kernel_size=[3, 3, 3], stride=[1, 2, 2], padding=[1, 1, 1], groups=96, bias=False)
            (norm_v): LayerNorm((96,), eps=1e-06, elementwise_affine=True)
          )
          (drop_path): DropPath()
          (norm2): LayerNorm((384,), eps=1e-06, elementwise_affine=True)
          (mlp): Mlp(
            (fc1): Linear(in_features=384, out_features=1536, bias=True)
            (act): GELU()
            (fc2): Linear(in_features=1536, out_features=384, bias=True)
          )
        )
        (9): MultiScaleBlock(
          (norm1): LayerNorm((384,), eps=1e-06, elementwise_affine=True)
          (attn): MultiScaleAttention(
            (qkv): Linear(in_features=384, out_features=1152, bias=True)
            (proj): Linear(in_features=384, out_features=384, bias=True)
            (pool_q): Conv3d(96, 96, kernel_size=[3, 3, 3], stride=[1, 1, 1], padding=[1, 1, 1], groups=96, bias=False)
            (norm_q): LayerNorm((96,), eps=1e-06, elementwise_affine=True)
            (pool_k): Conv3d(96, 96, kernel_size=[3, 3, 3], stride=[1, 2, 2], padding=[1, 1, 1], groups=96, bias=False)
            (norm_k): LayerNorm((96,), eps=1e-06, elementwise_affine=True)
            (pool_v): Conv3d(96, 96, kernel_size=[3, 3, 3], stride=[1, 2, 2], padding=[1, 1, 1], groups=96, bias=False)
            (norm_v): LayerNorm((96,), eps=1e-06, elementwise_affine=True)
          )
          (drop_path): DropPath()
          (norm2): LayerNorm((384,), eps=1e-06, elementwise_affine=True)
          (mlp): Mlp(
            (fc1): Linear(in_features=384, out_features=1536, bias=True)
            (act): GELU()
            (fc2): Linear(in_features=1536, out_features=384, bias=True)
          )
        )
        (10): MultiScaleBlock(
          (norm1): LayerNorm((384,), eps=1e-06, elementwise_affine=True)
          (attn): MultiScaleAttention(
            (qkv): Linear(in_features=384, out_features=1152, bias=True)
            (proj): Linear(in_features=384, out_features=384, bias=True)
            (pool_q): Conv3d(96, 96, kernel_size=[3, 3, 3], stride=[1, 1, 1], padding=[1, 1, 1], groups=96, bias=False)
            (norm_q): LayerNorm((96,), eps=1e-06, elementwise_affine=True)
            (pool_k): Conv3d(96, 96, kernel_size=[3, 3, 3], stride=[1, 2, 2], padding=[1, 1, 1], groups=96, bias=False)
            (norm_k): LayerNorm((96,), eps=1e-06, elementwise_affine=True)
            (pool_v): Conv3d(96, 96, kernel_size=[3, 3, 3], stride=[1, 2, 2], padding=[1, 1, 1], groups=96, bias=False)
            (norm_v): LayerNorm((96,), eps=1e-06, elementwise_affine=True)
          )
          (drop_path): DropPath()
          (norm2): LayerNorm((384,), eps=1e-06, elementwise_affine=True)
          (mlp): Mlp(
            (fc1): Linear(in_features=384, out_features=1536, bias=True)
            (act): GELU()
            (fc2): Linear(in_features=1536, out_features=384, bias=True)
          )
        )
        (11): MultiScaleBlock(
          (norm1): LayerNorm((384,), eps=1e-06, elementwise_affine=True)
          (attn): MultiScaleAttention(
            (qkv): Linear(in_features=384, out_features=1152, bias=True)
            (proj): Linear(in_features=384, out_features=384, bias=True)
            (pool_q): Conv3d(96, 96, kernel_size=[3, 3, 3], stride=[1, 1, 1], padding=[1, 1, 1], groups=96, bias=False)
            (norm_q): LayerNorm((96,), eps=1e-06, elementwise_affine=True)
            (pool_k): Conv3d(96, 96, kernel_size=[3, 3, 3], stride=[1, 2, 2], padding=[1, 1, 1], groups=96, bias=False)
            (norm_k): LayerNorm((96,), eps=1e-06, elementwise_affine=True)
            (pool_v): Conv3d(96, 96, kernel_size=[3, 3, 3], stride=[1, 2, 2], padding=[1, 1, 1], groups=96, bias=False)
            (norm_v): LayerNorm((96,), eps=1e-06, elementwise_affine=True)
          )
          (drop_path): DropPath()
          (norm2): LayerNorm((384,), eps=1e-06, elementwise_affine=True)
          (mlp): Mlp(
            (fc1): Linear(in_features=384, out_features=1536, bias=True)
            (act): GELU()
            (fc2): Linear(in_features=1536, out_features=384, bias=True)
          )
        )
        (12): MultiScaleBlock(
          (norm1): LayerNorm((384,), eps=1e-06, elementwise_affine=True)
          (attn): MultiScaleAttention(
            (qkv): Linear(in_features=384, out_features=1152, bias=True)
            (proj): Linear(in_features=384, out_features=384, bias=True)
            (pool_q): Conv3d(96, 96, kernel_size=[3, 3, 3], stride=[1, 1, 1], padding=[1, 1, 1], groups=96, bias=False)
            (norm_q): LayerNorm((96,), eps=1e-06, elementwise_affine=True)
            (pool_k): Conv3d(96, 96, kernel_size=[3, 3, 3], stride=[1, 2, 2], padding=[1, 1, 1], groups=96, bias=False)
            (norm_k): LayerNorm((96,), eps=1e-06, elementwise_affine=True)
            (pool_v): Conv3d(96, 96, kernel_size=[3, 3, 3], stride=[1, 2, 2], padding=[1, 1, 1], groups=96, bias=False)
            (norm_v): LayerNorm((96,), eps=1e-06, elementwise_affine=True)
          )
          (drop_path): DropPath()
          (norm2): LayerNorm((384,), eps=1e-06, elementwise_affine=True)
          (mlp): Mlp(
            (fc1): Linear(in_features=384, out_features=1536, bias=True)
            (act): GELU()
            (fc2): Linear(in_features=1536, out_features=384, bias=True)
          )
        )
        (13): MultiScaleBlock(
          (norm1): LayerNorm((384,), eps=1e-06, elementwise_affine=True)
          (attn): MultiScaleAttention(
            (qkv): Linear(in_features=384, out_features=1152, bias=True)
            (proj): Linear(in_features=384, out_features=384, bias=True)
            (pool_q): Conv3d(96, 96, kernel_size=[3, 3, 3], stride=[1, 1, 1], padding=[1, 1, 1], groups=96, bias=False)
            (norm_q): LayerNorm((96,), eps=1e-06, elementwise_affine=True)
            (pool_k): Conv3d(96, 96, kernel_size=[3, 3, 3], stride=[1, 2, 2], padding=[1, 1, 1], groups=96, bias=False)
            (norm_k): LayerNorm((96,), eps=1e-06, elementwise_affine=True)
            (pool_v): Conv3d(96, 96, kernel_size=[3, 3, 3], stride=[1, 2, 2], padding=[1, 1, 1], groups=96, bias=False)
            (norm_v): LayerNorm((96,), eps=1e-06, elementwise_affine=True)
          )
          (drop_path): DropPath()
          (norm2): LayerNorm((384,), eps=1e-06, elementwise_affine=True)
          (mlp): Mlp(
            (fc1): Linear(in_features=384, out_features=1536, bias=True)
            (act): GELU()
            (fc2): Linear(in_features=1536, out_features=384, bias=True)
          )
        )
        (14): MultiScaleBlock(
          (norm1): LayerNorm((384,), eps=1e-06, elementwise_affine=True)
          (attn): MultiScaleAttention(
            (qkv): Linear(in_features=384, out_features=2304, bias=True)
            (proj): Linear(in_features=768, out_features=768, bias=True)
            (pool_q): Conv3d(96, 96, kernel_size=[3, 3, 3], stride=[1, 2, 2], padding=[1, 1, 1], groups=96, bias=False)
            (norm_q): LayerNorm((96,), eps=1e-06, elementwise_affine=True)
            (pool_k): Conv3d(96, 96, kernel_size=[3, 3, 3], stride=[1, 1, 1], padding=[1, 1, 1], groups=96, bias=False)
            (norm_k): LayerNorm((96,), eps=1e-06, elementwise_affine=True)
            (pool_v): Conv3d(96, 96, kernel_size=[3, 3, 3], stride=[1, 1, 1], padding=[1, 1, 1], groups=96, bias=False)
            (norm_v): LayerNorm((96,), eps=1e-06, elementwise_affine=True)
          )
          (drop_path): DropPath()
          (norm2): LayerNorm((768,), eps=1e-06, elementwise_affine=True)
          (mlp): Mlp(
            (fc1): Linear(in_features=768, out_features=3072, bias=True)
            (act): GELU()
            (fc2): Linear(in_features=3072, out_features=768, bias=True)
          )
          (proj): Linear(in_features=384, out_features=768, bias=True)
          (pool_skip): MaxPool3d(kernel_size=[1, 3, 3], stride=[1, 2, 2], padding=[0, 1, 1], dilation=1, ceil_mode=False)
        )
        (15): MultiScaleBlock(
          (norm1): LayerNorm((768,), eps=1e-06, elementwise_affine=True)
          (attn): MultiScaleAttention(
            (qkv): Linear(in_features=768, out_features=2304, bias=True)
            (proj): Linear(in_features=768, out_features=768, bias=True)
            (pool_q): Conv3d(96, 96, kernel_size=[3, 3, 3], stride=[1, 1, 1], padding=[1, 1, 1], groups=96, bias=False)
            (norm_q): LayerNorm((96,), eps=1e-06, elementwise_affine=True)
            (pool_k): Conv3d(96, 96, kernel_size=[3, 3, 3], stride=[1, 1, 1], padding=[1, 1, 1], groups=96, bias=False)
            (norm_k): LayerNorm((96,), eps=1e-06, elementwise_affine=True)
            (pool_v): Conv3d(96, 96, kernel_size=[3, 3, 3], stride=[1, 1, 1], padding=[1, 1, 1], groups=96, bias=False)
            (norm_v): LayerNorm((96,), eps=1e-06, elementwise_affine=True)
          )
          (drop_path): DropPath()
          (norm2): LayerNorm((768,), eps=1e-06, elementwise_affine=True)
          (mlp): Mlp(
            (fc1): Linear(in_features=768, out_features=3072, bias=True)
            (act): GELU()
            (fc2): Linear(in_features=3072, out_features=768, bias=True)
          )
        )
      )
      (norm): LayerNorm((768,), eps=1e-06, elementwise_affine=True)
      (head): TransformerBasicHead(
        (dropout): Dropout(p=0.5, inplace=False)
        (projection): Linear(in_features=768, out_features=7, bias=True)
        (act): Softmax(dim=1)
      )
    )
    (model2): MViT(
      (patch_embed): PatchEmbed(
        (proj): Conv3d(3, 96, kernel_size=[3, 7, 7], stride=[2, 4, 4], padding=[1, 3, 3])
      )
      (blocks): ModuleList(
        (0): MultiScaleBlock(
          (norm1): LayerNorm((96,), eps=1e-06, elementwise_affine=True)
          (attn): MultiScaleAttention(
            (qkv): Linear(in_features=96, out_features=288, bias=True)
            (proj): Linear(in_features=96, out_features=96, bias=True)
            (pool_q): Conv3d(96, 96, kernel_size=[3, 3, 3], stride=[1, 1, 1], padding=[1, 1, 1], groups=96, bias=False)
            (norm_q): LayerNorm((96,), eps=1e-06, elementwise_affine=True)
            (pool_k): Conv3d(96, 96, kernel_size=[3, 3, 3], stride=[1, 8, 8], padding=[1, 1, 1], groups=96, bias=False)
            (norm_k): LayerNorm((96,), eps=1e-06, elementwise_affine=True)
            (pool_v): Conv3d(96, 96, kernel_size=[3, 3, 3], stride=[1, 8, 8], padding=[1, 1, 1], groups=96, bias=False)
            (norm_v): LayerNorm((96,), eps=1e-06, elementwise_affine=True)
          )
          (drop_path): Identity()
          (norm2): LayerNorm((96,), eps=1e-06, elementwise_affine=True)
          (mlp): Mlp(
            (fc1): Linear(in_features=96, out_features=384, bias=True)
            (act): GELU()
            (fc2): Linear(in_features=384, out_features=96, bias=True)
          )
        )
        (1): MultiScaleBlock(
          (norm1): LayerNorm((96,), eps=1e-06, elementwise_affine=True)
          (attn): MultiScaleAttention(
            (qkv): Linear(in_features=96, out_features=576, bias=True)
            (proj): Linear(in_features=192, out_features=192, bias=True)
            (pool_q): Conv3d(96, 96, kernel_size=[3, 3, 3], stride=[1, 2, 2], padding=[1, 1, 1], groups=96, bias=False)
            (norm_q): LayerNorm((96,), eps=1e-06, elementwise_affine=True)
            (pool_k): Conv3d(96, 96, kernel_size=[3, 3, 3], stride=[1, 4, 4], padding=[1, 1, 1], groups=96, bias=False)
            (norm_k): LayerNorm((96,), eps=1e-06, elementwise_affine=True)
            (pool_v): Conv3d(96, 96, kernel_size=[3, 3, 3], stride=[1, 4, 4], padding=[1, 1, 1], groups=96, bias=False)
            (norm_v): LayerNorm((96,), eps=1e-06, elementwise_affine=True)
          )
          (drop_path): DropPath()
          (norm2): LayerNorm((192,), eps=1e-06, elementwise_affine=True)
          (mlp): Mlp(
            (fc1): Linear(in_features=192, out_features=768, bias=True)
            (act): GELU()
            (fc2): Linear(in_features=768, out_features=192, bias=True)
          )
          (proj): Linear(in_features=96, out_features=192, bias=True)
          (pool_skip): MaxPool3d(kernel_size=[1, 3, 3], stride=[1, 2, 2], padding=[0, 1, 1], dilation=1, ceil_mode=False)
        )
        (2): MultiScaleBlock(
          (norm1): LayerNorm((192,), eps=1e-06, elementwise_affine=True)
          (attn): MultiScaleAttention(
            (qkv): Linear(in_features=192, out_features=576, bias=True)
            (proj): Linear(in_features=192, out_features=192, bias=True)
            (pool_q): Conv3d(96, 96, kernel_size=[3, 3, 3], stride=[1, 1, 1], padding=[1, 1, 1], groups=96, bias=False)
            (norm_q): LayerNorm((96,), eps=1e-06, elementwise_affine=True)
            (pool_k): Conv3d(96, 96, kernel_size=[3, 3, 3], stride=[1, 4, 4], padding=[1, 1, 1], groups=96, bias=False)
            (norm_k): LayerNorm((96,), eps=1e-06, elementwise_affine=True)
            (pool_v): Conv3d(96, 96, kernel_size=[3, 3, 3], stride=[1, 4, 4], padding=[1, 1, 1], groups=96, bias=False)
            (norm_v): LayerNorm((96,), eps=1e-06, elementwise_affine=True)
          )
          (drop_path): DropPath()
          (norm2): LayerNorm((192,), eps=1e-06, elementwise_affine=True)
          (mlp): Mlp(
            (fc1): Linear(in_features=192, out_features=768, bias=True)
            (act): GELU()
            (fc2): Linear(in_features=768, out_features=192, bias=True)
          )
        )
        (3): MultiScaleBlock(
          (norm1): LayerNorm((192,), eps=1e-06, elementwise_affine=True)
          (attn): MultiScaleAttention(
            (qkv): Linear(in_features=192, out_features=1152, bias=True)
            (proj): Linear(in_features=384, out_features=384, bias=True)
            (pool_q): Conv3d(96, 96, kernel_size=[3, 3, 3], stride=[1, 2, 2], padding=[1, 1, 1], groups=96, bias=False)
            (norm_q): LayerNorm((96,), eps=1e-06, elementwise_affine=True)
            (pool_k): Conv3d(96, 96, kernel_size=[3, 3, 3], stride=[1, 2, 2], padding=[1, 1, 1], groups=96, bias=False)
            (norm_k): LayerNorm((96,), eps=1e-06, elementwise_affine=True)
            (pool_v): Conv3d(96, 96, kernel_size=[3, 3, 3], stride=[1, 2, 2], padding=[1, 1, 1], groups=96, bias=False)
            (norm_v): LayerNorm((96,), eps=1e-06, elementwise_affine=True)
          )
          (drop_path): DropPath()
          (norm2): LayerNorm((384,), eps=1e-06, elementwise_affine=True)
          (mlp): Mlp(
            (fc1): Linear(in_features=384, out_features=1536, bias=True)
            (act): GELU()
            (fc2): Linear(in_features=1536, out_features=384, bias=True)
          )
          (proj): Linear(in_features=192, out_features=384, bias=True)
          (pool_skip): MaxPool3d(kernel_size=[1, 3, 3], stride=[1, 2, 2], padding=[0, 1, 1], dilation=1, ceil_mode=False)
        )
        (4): MultiScaleBlock(
          (norm1): LayerNorm((384,), eps=1e-06, elementwise_affine=True)
          (attn): MultiScaleAttention(
            (qkv): Linear(in_features=384, out_features=1152, bias=True)
            (proj): Linear(in_features=384, out_features=384, bias=True)
            (pool_q): Conv3d(96, 96, kernel_size=[3, 3, 3], stride=[1, 1, 1], padding=[1, 1, 1], groups=96, bias=False)
            (norm_q): LayerNorm((96,), eps=1e-06, elementwise_affine=True)
            (pool_k): Conv3d(96, 96, kernel_size=[3, 3, 3], stride=[1, 2, 2], padding=[1, 1, 1], groups=96, bias=False)
            (norm_k): LayerNorm((96,), eps=1e-06, elementwise_affine=True)
            (pool_v): Conv3d(96, 96, kernel_size=[3, 3, 3], stride=[1, 2, 2], padding=[1, 1, 1], groups=96, bias=False)
            (norm_v): LayerNorm((96,), eps=1e-06, elementwise_affine=True)
          )
          (drop_path): DropPath()
          (norm2): LayerNorm((384,), eps=1e-06, elementwise_affine=True)
          (mlp): Mlp(
            (fc1): Linear(in_features=384, out_features=1536, bias=True)
            (act): GELU()
            (fc2): Linear(in_features=1536, out_features=384, bias=True)
          )
        )
        (5): MultiScaleBlock(
          (norm1): LayerNorm((384,), eps=1e-06, elementwise_affine=True)
          (attn): MultiScaleAttention(
            (qkv): Linear(in_features=384, out_features=1152, bias=True)
            (proj): Linear(in_features=384, out_features=384, bias=True)
            (pool_q): Conv3d(96, 96, kernel_size=[3, 3, 3], stride=[1, 1, 1], padding=[1, 1, 1], groups=96, bias=False)
            (norm_q): LayerNorm((96,), eps=1e-06, elementwise_affine=True)
            (pool_k): Conv3d(96, 96, kernel_size=[3, 3, 3], stride=[1, 2, 2], padding=[1, 1, 1], groups=96, bias=False)
            (norm_k): LayerNorm((96,), eps=1e-06, elementwise_affine=True)
            (pool_v): Conv3d(96, 96, kernel_size=[3, 3, 3], stride=[1, 2, 2], padding=[1, 1, 1], groups=96, bias=False)
            (norm_v): LayerNorm((96,), eps=1e-06, elementwise_affine=True)
          )
          (drop_path): DropPath()
          (norm2): LayerNorm((384,), eps=1e-06, elementwise_affine=True)
          (mlp): Mlp(
            (fc1): Linear(in_features=384, out_features=1536, bias=True)
            (act): GELU()
            (fc2): Linear(in_features=1536, out_features=384, bias=True)
          )
        )
        (6): MultiScaleBlock(
          (norm1): LayerNorm((384,), eps=1e-06, elementwise_affine=True)
          (attn): MultiScaleAttention(
            (qkv): Linear(in_features=384, out_features=1152, bias=True)
            (proj): Linear(in_features=384, out_features=384, bias=True)
            (pool_q): Conv3d(96, 96, kernel_size=[3, 3, 3], stride=[1, 1, 1], padding=[1, 1, 1], groups=96, bias=False)
            (norm_q): LayerNorm((96,), eps=1e-06, elementwise_affine=True)
            (pool_k): Conv3d(96, 96, kernel_size=[3, 3, 3], stride=[1, 2, 2], padding=[1, 1, 1], groups=96, bias=False)
            (norm_k): LayerNorm((96,), eps=1e-06, elementwise_affine=True)
            (pool_v): Conv3d(96, 96, kernel_size=[3, 3, 3], stride=[1, 2, 2], padding=[1, 1, 1], groups=96, bias=False)
            (norm_v): LayerNorm((96,), eps=1e-06, elementwise_affine=True)
          )
          (drop_path): DropPath()
          (norm2): LayerNorm((384,), eps=1e-06, elementwise_affine=True)
          (mlp): Mlp(
            (fc1): Linear(in_features=384, out_features=1536, bias=True)
            (act): GELU()
            (fc2): Linear(in_features=1536, out_features=384, bias=True)
          )
        )
        (7): MultiScaleBlock(
          (norm1): LayerNorm((384,), eps=1e-06, elementwise_affine=True)
          (attn): MultiScaleAttention(
            (qkv): Linear(in_features=384, out_features=1152, bias=True)
            (proj): Linear(in_features=384, out_features=384, bias=True)
            (pool_q): Conv3d(96, 96, kernel_size=[3, 3, 3], stride=[1, 1, 1], padding=[1, 1, 1], groups=96, bias=False)
            (norm_q): LayerNorm((96,), eps=1e-06, elementwise_affine=True)
            (pool_k): Conv3d(96, 96, kernel_size=[3, 3, 3], stride=[1, 2, 2], padding=[1, 1, 1], groups=96, bias=False)
            (norm_k): LayerNorm((96,), eps=1e-06, elementwise_affine=True)
            (pool_v): Conv3d(96, 96, kernel_size=[3, 3, 3], stride=[1, 2, 2], padding=[1, 1, 1], groups=96, bias=False)
            (norm_v): LayerNorm((96,), eps=1e-06, elementwise_affine=True)
          )
          (drop_path): DropPath()
          (norm2): LayerNorm((384,), eps=1e-06, elementwise_affine=True)
          (mlp): Mlp(
            (fc1): Linear(in_features=384, out_features=1536, bias=True)
            (act): GELU()
            (fc2): Linear(in_features=1536, out_features=384, bias=True)
          )
        )
        (8): MultiScaleBlock(
          (norm1): LayerNorm((384,), eps=1e-06, elementwise_affine=True)
          (attn): MultiScaleAttention(
            (qkv): Linear(in_features=384, out_features=1152, bias=True)
            (proj): Linear(in_features=384, out_features=384, bias=True)
            (pool_q): Conv3d(96, 96, kernel_size=[3, 3, 3], stride=[1, 1, 1], padding=[1, 1, 1], groups=96, bias=False)
            (norm_q): LayerNorm((96,), eps=1e-06, elementwise_affine=True)
            (pool_k): Conv3d(96, 96, kernel_size=[3, 3, 3], stride=[1, 2, 2], padding=[1, 1, 1], groups=96, bias=False)
            (norm_k): LayerNorm((96,), eps=1e-06, elementwise_affine=True)
            (pool_v): Conv3d(96, 96, kernel_size=[3, 3, 3], stride=[1, 2, 2], padding=[1, 1, 1], groups=96, bias=False)
            (norm_v): LayerNorm((96,), eps=1e-06, elementwise_affine=True)
          )
          (drop_path): DropPath()
          (norm2): LayerNorm((384,), eps=1e-06, elementwise_affine=True)
          (mlp): Mlp(
            (fc1): Linear(in_features=384, out_features=1536, bias=True)
            (act): GELU()
            (fc2): Linear(in_features=1536, out_features=384, bias=True)
          )
        )
        (9): MultiScaleBlock(
          (norm1): LayerNorm((384,), eps=1e-06, elementwise_affine=True)
          (attn): MultiScaleAttention(
            (qkv): Linear(in_features=384, out_features=1152, bias=True)
            (proj): Linear(in_features=384, out_features=384, bias=True)
            (pool_q): Conv3d(96, 96, kernel_size=[3, 3, 3], stride=[1, 1, 1], padding=[1, 1, 1], groups=96, bias=False)
            (norm_q): LayerNorm((96,), eps=1e-06, elementwise_affine=True)
            (pool_k): Conv3d(96, 96, kernel_size=[3, 3, 3], stride=[1, 2, 2], padding=[1, 1, 1], groups=96, bias=False)
            (norm_k): LayerNorm((96,), eps=1e-06, elementwise_affine=True)
            (pool_v): Conv3d(96, 96, kernel_size=[3, 3, 3], stride=[1, 2, 2], padding=[1, 1, 1], groups=96, bias=False)
            (norm_v): LayerNorm((96,), eps=1e-06, elementwise_affine=True)
          )
          (drop_path): DropPath()
          (norm2): LayerNorm((384,), eps=1e-06, elementwise_affine=True)
          (mlp): Mlp(
            (fc1): Linear(in_features=384, out_features=1536, bias=True)
            (act): GELU()
            (fc2): Linear(in_features=1536, out_features=384, bias=True)
          )
        )
        (10): MultiScaleBlock(
          (norm1): LayerNorm((384,), eps=1e-06, elementwise_affine=True)
          (attn): MultiScaleAttention(
            (qkv): Linear(in_features=384, out_features=1152, bias=True)
            (proj): Linear(in_features=384, out_features=384, bias=True)
            (pool_q): Conv3d(96, 96, kernel_size=[3, 3, 3], stride=[1, 1, 1], padding=[1, 1, 1], groups=96, bias=False)
            (norm_q): LayerNorm((96,), eps=1e-06, elementwise_affine=True)
            (pool_k): Conv3d(96, 96, kernel_size=[3, 3, 3], stride=[1, 2, 2], padding=[1, 1, 1], groups=96, bias=False)
            (norm_k): LayerNorm((96,), eps=1e-06, elementwise_affine=True)
            (pool_v): Conv3d(96, 96, kernel_size=[3, 3, 3], stride=[1, 2, 2], padding=[1, 1, 1], groups=96, bias=False)
            (norm_v): LayerNorm((96,), eps=1e-06, elementwise_affine=True)
          )
          (drop_path): DropPath()
          (norm2): LayerNorm((384,), eps=1e-06, elementwise_affine=True)
          (mlp): Mlp(
            (fc1): Linear(in_features=384, out_features=1536, bias=True)
            (act): GELU()
            (fc2): Linear(in_features=1536, out_features=384, bias=True)
          )
        )
        (11): MultiScaleBlock(
          (norm1): LayerNorm((384,), eps=1e-06, elementwise_affine=True)
          (attn): MultiScaleAttention(
            (qkv): Linear(in_features=384, out_features=1152, bias=True)
            (proj): Linear(in_features=384, out_features=384, bias=True)
            (pool_q): Conv3d(96, 96, kernel_size=[3, 3, 3], stride=[1, 1, 1], padding=[1, 1, 1], groups=96, bias=False)
            (norm_q): LayerNorm((96,), eps=1e-06, elementwise_affine=True)
            (pool_k): Conv3d(96, 96, kernel_size=[3, 3, 3], stride=[1, 2, 2], padding=[1, 1, 1], groups=96, bias=False)
            (norm_k): LayerNorm((96,), eps=1e-06, elementwise_affine=True)
            (pool_v): Conv3d(96, 96, kernel_size=[3, 3, 3], stride=[1, 2, 2], padding=[1, 1, 1], groups=96, bias=False)
            (norm_v): LayerNorm((96,), eps=1e-06, elementwise_affine=True)
          )
          (drop_path): DropPath()
          (norm2): LayerNorm((384,), eps=1e-06, elementwise_affine=True)
          (mlp): Mlp(
            (fc1): Linear(in_features=384, out_features=1536, bias=True)
            (act): GELU()
            (fc2): Linear(in_features=1536, out_features=384, bias=True)
          )
        )
        (12): MultiScaleBlock(
          (norm1): LayerNorm((384,), eps=1e-06, elementwise_affine=True)
          (attn): MultiScaleAttention(
            (qkv): Linear(in_features=384, out_features=1152, bias=True)
            (proj): Linear(in_features=384, out_features=384, bias=True)
            (pool_q): Conv3d(96, 96, kernel_size=[3, 3, 3], stride=[1, 1, 1], padding=[1, 1, 1], groups=96, bias=False)
            (norm_q): LayerNorm((96,), eps=1e-06, elementwise_affine=True)
            (pool_k): Conv3d(96, 96, kernel_size=[3, 3, 3], stride=[1, 2, 2], padding=[1, 1, 1], groups=96, bias=False)
            (norm_k): LayerNorm((96,), eps=1e-06, elementwise_affine=True)
            (pool_v): Conv3d(96, 96, kernel_size=[3, 3, 3], stride=[1, 2, 2], padding=[1, 1, 1], groups=96, bias=False)
            (norm_v): LayerNorm((96,), eps=1e-06, elementwise_affine=True)
          )
          (drop_path): DropPath()
          (norm2): LayerNorm((384,), eps=1e-06, elementwise_affine=True)
          (mlp): Mlp(
            (fc1): Linear(in_features=384, out_features=1536, bias=True)
            (act): GELU()
            (fc2): Linear(in_features=1536, out_features=384, bias=True)
          )
        )
        (13): MultiScaleBlock(
          (norm1): LayerNorm((384,), eps=1e-06, elementwise_affine=True)
          (attn): MultiScaleAttention(
            (qkv): Linear(in_features=384, out_features=1152, bias=True)
            (proj): Linear(in_features=384, out_features=384, bias=True)
            (pool_q): Conv3d(96, 96, kernel_size=[3, 3, 3], stride=[1, 1, 1], padding=[1, 1, 1], groups=96, bias=False)
            (norm_q): LayerNorm((96,), eps=1e-06, elementwise_affine=True)
            (pool_k): Conv3d(96, 96, kernel_size=[3, 3, 3], stride=[1, 2, 2], padding=[1, 1, 1], groups=96, bias=False)
            (norm_k): LayerNorm((96,), eps=1e-06, elementwise_affine=True)
            (pool_v): Conv3d(96, 96, kernel_size=[3, 3, 3], stride=[1, 2, 2], padding=[1, 1, 1], groups=96, bias=False)
            (norm_v): LayerNorm((96,), eps=1e-06, elementwise_affine=True)
          )
          (drop_path): DropPath()
          (norm2): LayerNorm((384,), eps=1e-06, elementwise_affine=True)
          (mlp): Mlp(
            (fc1): Linear(in_features=384, out_features=1536, bias=True)
            (act): GELU()
            (fc2): Linear(in_features=1536, out_features=384, bias=True)
          )
        )
        (14): MultiScaleBlock(
          (norm1): LayerNorm((384,), eps=1e-06, elementwise_affine=True)
          (attn): MultiScaleAttention(
            (qkv): Linear(in_features=384, out_features=2304, bias=True)
            (proj): Linear(in_features=768, out_features=768, bias=True)
            (pool_q): Conv3d(96, 96, kernel_size=[3, 3, 3], stride=[1, 2, 2], padding=[1, 1, 1], groups=96, bias=False)
            (norm_q): LayerNorm((96,), eps=1e-06, elementwise_affine=True)
            (pool_k): Conv3d(96, 96, kernel_size=[3, 3, 3], stride=[1, 1, 1], padding=[1, 1, 1], groups=96, bias=False)
            (norm_k): LayerNorm((96,), eps=1e-06, elementwise_affine=True)
            (pool_v): Conv3d(96, 96, kernel_size=[3, 3, 3], stride=[1, 1, 1], padding=[1, 1, 1], groups=96, bias=False)
            (norm_v): LayerNorm((96,), eps=1e-06, elementwise_affine=True)
          )
          (drop_path): DropPath()
          (norm2): LayerNorm((768,), eps=1e-06, elementwise_affine=True)
          (mlp): Mlp(
            (fc1): Linear(in_features=768, out_features=3072, bias=True)
            (act): GELU()
            (fc2): Linear(in_features=3072, out_features=768, bias=True)
          )
          (proj): Linear(in_features=384, out_features=768, bias=True)
          (pool_skip): MaxPool3d(kernel_size=[1, 3, 3], stride=[1, 2, 2], padding=[0, 1, 1], dilation=1, ceil_mode=False)
        )
        (15): MultiScaleBlock(
          (norm1): LayerNorm((768,), eps=1e-06, elementwise_affine=True)
          (attn): MultiScaleAttention(
            (qkv): Linear(in_features=768, out_features=2304, bias=True)
            (proj): Linear(in_features=768, out_features=768, bias=True)
            (pool_q): Conv3d(96, 96, kernel_size=[3, 3, 3], stride=[1, 1, 1], padding=[1, 1, 1], groups=96, bias=False)
            (norm_q): LayerNorm((96,), eps=1e-06, elementwise_affine=True)
            (pool_k): Conv3d(96, 96, kernel_size=[3, 3, 3], stride=[1, 1, 1], padding=[1, 1, 1], groups=96, bias=False)
            (norm_k): LayerNorm((96,), eps=1e-06, elementwise_affine=True)
            (pool_v): Conv3d(96, 96, kernel_size=[3, 3, 3], stride=[1, 1, 1], padding=[1, 1, 1], groups=96, bias=False)
            (norm_v): LayerNorm((96,), eps=1e-06, elementwise_affine=True)
          )
          (drop_path): DropPath()
          (norm2): LayerNorm((768,), eps=1e-06, elementwise_affine=True)
          (mlp): Mlp(
            (fc1): Linear(in_features=768, out_features=3072, bias=True)
            (act): GELU()
            (fc2): Linear(in_features=3072, out_features=768, bias=True)
          )
        )
      )
      (norm): LayerNorm((768,), eps=1e-06, elementwise_affine=True)
      (head): TransformerBasicHead(
        (dropout): Dropout(p=0.5, inplace=False)
        (projection): Linear(in_features=768, out_features=7, bias=True)
        (act): Softmax(dim=1)
      )
    )
  )
  (first_model): add_fc(
    (model): MViT_cbm(
      (patch_embed): PatchEmbed(
        (proj): Conv3d(3, 96, kernel_size=[3, 7, 7], stride=[2, 4, 4], padding=[1, 3, 3])
      )
      (blocks): ModuleList(
        (0): MultiScaleBlock(
          (norm1): LayerNorm((96,), eps=1e-06, elementwise_affine=True)
          (attn): MultiScaleAttention(
            (qkv): Linear(in_features=96, out_features=288, bias=True)
            (proj): Linear(in_features=96, out_features=96, bias=True)
            (pool_q): Conv3d(96, 96, kernel_size=[3, 3, 3], stride=[1, 1, 1], padding=[1, 1, 1], groups=96, bias=False)
            (norm_q): LayerNorm((96,), eps=1e-06, elementwise_affine=True)
            (pool_k): Conv3d(96, 96, kernel_size=[3, 3, 3], stride=[1, 8, 8], padding=[1, 1, 1], groups=96, bias=False)
            (norm_k): LayerNorm((96,), eps=1e-06, elementwise_affine=True)
            (pool_v): Conv3d(96, 96, kernel_size=[3, 3, 3], stride=[1, 8, 8], padding=[1, 1, 1], groups=96, bias=False)
            (norm_v): LayerNorm((96,), eps=1e-06, elementwise_affine=True)
          )
          (drop_path): Identity()
          (norm2): LayerNorm((96,), eps=1e-06, elementwise_affine=True)
          (mlp): Mlp(
            (fc1): Linear(in_features=96, out_features=384, bias=True)
            (act): GELU()
            (fc2): Linear(in_features=384, out_features=96, bias=True)
          )
        )
        (1): MultiScaleBlock(
          (norm1): LayerNorm((96,), eps=1e-06, elementwise_affine=True)
          (attn): MultiScaleAttention(
            (qkv): Linear(in_features=96, out_features=576, bias=True)
            (proj): Linear(in_features=192, out_features=192, bias=True)
            (pool_q): Conv3d(96, 96, kernel_size=[3, 3, 3], stride=[1, 2, 2], padding=[1, 1, 1], groups=96, bias=False)
            (norm_q): LayerNorm((96,), eps=1e-06, elementwise_affine=True)
            (pool_k): Conv3d(96, 96, kernel_size=[3, 3, 3], stride=[1, 4, 4], padding=[1, 1, 1], groups=96, bias=False)
            (norm_k): LayerNorm((96,), eps=1e-06, elementwise_affine=True)
            (pool_v): Conv3d(96, 96, kernel_size=[3, 3, 3], stride=[1, 4, 4], padding=[1, 1, 1], groups=96, bias=False)
            (norm_v): LayerNorm((96,), eps=1e-06, elementwise_affine=True)
          )
          (drop_path): DropPath()
          (norm2): LayerNorm((192,), eps=1e-06, elementwise_affine=True)
          (mlp): Mlp(
            (fc1): Linear(in_features=192, out_features=768, bias=True)
            (act): GELU()
            (fc2): Linear(in_features=768, out_features=192, bias=True)
          )
          (proj): Linear(in_features=96, out_features=192, bias=True)
          (pool_skip): MaxPool3d(kernel_size=[1, 3, 3], stride=[1, 2, 2], padding=[0, 1, 1], dilation=1, ceil_mode=False)
        )
        (2): MultiScaleBlock(
          (norm1): LayerNorm((192,), eps=1e-06, elementwise_affine=True)
          (attn): MultiScaleAttention(
            (qkv): Linear(in_features=192, out_features=576, bias=True)
            (proj): Linear(in_features=192, out_features=192, bias=True)
            (pool_q): Conv3d(96, 96, kernel_size=[3, 3, 3], stride=[1, 1, 1], padding=[1, 1, 1], groups=96, bias=False)
            (norm_q): LayerNorm((96,), eps=1e-06, elementwise_affine=True)
            (pool_k): Conv3d(96, 96, kernel_size=[3, 3, 3], stride=[1, 4, 4], padding=[1, 1, 1], groups=96, bias=False)
            (norm_k): LayerNorm((96,), eps=1e-06, elementwise_affine=True)
            (pool_v): Conv3d(96, 96, kernel_size=[3, 3, 3], stride=[1, 4, 4], padding=[1, 1, 1], groups=96, bias=False)
            (norm_v): LayerNorm((96,), eps=1e-06, elementwise_affine=True)
          )
          (drop_path): DropPath()
          (norm2): LayerNorm((192,), eps=1e-06, elementwise_affine=True)
          (mlp): Mlp(
            (fc1): Linear(in_features=192, out_features=768, bias=True)
            (act): GELU()
            (fc2): Linear(in_features=768, out_features=192, bias=True)
          )
        )
        (3): MultiScaleBlock(
          (norm1): LayerNorm((192,), eps=1e-06, elementwise_affine=True)
          (attn): MultiScaleAttention(
            (qkv): Linear(in_features=192, out_features=1152, bias=True)
            (proj): Linear(in_features=384, out_features=384, bias=True)
            (pool_q): Conv3d(96, 96, kernel_size=[3, 3, 3], stride=[1, 2, 2], padding=[1, 1, 1], groups=96, bias=False)
            (norm_q): LayerNorm((96,), eps=1e-06, elementwise_affine=True)
            (pool_k): Conv3d(96, 96, kernel_size=[3, 3, 3], stride=[1, 2, 2], padding=[1, 1, 1], groups=96, bias=False)
            (norm_k): LayerNorm((96,), eps=1e-06, elementwise_affine=True)
            (pool_v): Conv3d(96, 96, kernel_size=[3, 3, 3], stride=[1, 2, 2], padding=[1, 1, 1], groups=96, bias=False)
            (norm_v): LayerNorm((96,), eps=1e-06, elementwise_affine=True)
          )
          (drop_path): DropPath()
          (norm2): LayerNorm((384,), eps=1e-06, elementwise_affine=True)
          (mlp): Mlp(
            (fc1): Linear(in_features=384, out_features=1536, bias=True)
            (act): GELU()
            (fc2): Linear(in_features=1536, out_features=384, bias=True)
          )
          (proj): Linear(in_features=192, out_features=384, bias=True)
          (pool_skip): MaxPool3d(kernel_size=[1, 3, 3], stride=[1, 2, 2], padding=[0, 1, 1], dilation=1, ceil_mode=False)
        )
        (4): MultiScaleBlock(
          (norm1): LayerNorm((384,), eps=1e-06, elementwise_affine=True)
          (attn): MultiScaleAttention(
            (qkv): Linear(in_features=384, out_features=1152, bias=True)
            (proj): Linear(in_features=384, out_features=384, bias=True)
            (pool_q): Conv3d(96, 96, kernel_size=[3, 3, 3], stride=[1, 1, 1], padding=[1, 1, 1], groups=96, bias=False)
            (norm_q): LayerNorm((96,), eps=1e-06, elementwise_affine=True)
            (pool_k): Conv3d(96, 96, kernel_size=[3, 3, 3], stride=[1, 2, 2], padding=[1, 1, 1], groups=96, bias=False)
            (norm_k): LayerNorm((96,), eps=1e-06, elementwise_affine=True)
            (pool_v): Conv3d(96, 96, kernel_size=[3, 3, 3], stride=[1, 2, 2], padding=[1, 1, 1], groups=96, bias=False)
            (norm_v): LayerNorm((96,), eps=1e-06, elementwise_affine=True)
          )
          (drop_path): DropPath()
          (norm2): LayerNorm((384,), eps=1e-06, elementwise_affine=True)
          (mlp): Mlp(
            (fc1): Linear(in_features=384, out_features=1536, bias=True)
            (act): GELU()
            (fc2): Linear(in_features=1536, out_features=384, bias=True)
          )
        )
        (5): MultiScaleBlock(
          (norm1): LayerNorm((384,), eps=1e-06, elementwise_affine=True)
          (attn): MultiScaleAttention(
            (qkv): Linear(in_features=384, out_features=1152, bias=True)
            (proj): Linear(in_features=384, out_features=384, bias=True)
            (pool_q): Conv3d(96, 96, kernel_size=[3, 3, 3], stride=[1, 1, 1], padding=[1, 1, 1], groups=96, bias=False)
            (norm_q): LayerNorm((96,), eps=1e-06, elementwise_affine=True)
            (pool_k): Conv3d(96, 96, kernel_size=[3, 3, 3], stride=[1, 2, 2], padding=[1, 1, 1], groups=96, bias=False)
            (norm_k): LayerNorm((96,), eps=1e-06, elementwise_affine=True)
            (pool_v): Conv3d(96, 96, kernel_size=[3, 3, 3], stride=[1, 2, 2], padding=[1, 1, 1], groups=96, bias=False)
            (norm_v): LayerNorm((96,), eps=1e-06, elementwise_affine=True)
          )
          (drop_path): DropPath()
          (norm2): LayerNorm((384,), eps=1e-06, elementwise_affine=True)
          (mlp): Mlp(
            (fc1): Linear(in_features=384, out_features=1536, bias=True)
            (act): GELU()
            (fc2): Linear(in_features=1536, out_features=384, bias=True)
          )
        )
        (6): MultiScaleBlock(
          (norm1): LayerNorm((384,), eps=1e-06, elementwise_affine=True)
          (attn): MultiScaleAttention(
            (qkv): Linear(in_features=384, out_features=1152, bias=True)
            (proj): Linear(in_features=384, out_features=384, bias=True)
            (pool_q): Conv3d(96, 96, kernel_size=[3, 3, 3], stride=[1, 1, 1], padding=[1, 1, 1], groups=96, bias=False)
            (norm_q): LayerNorm((96,), eps=1e-06, elementwise_affine=True)
            (pool_k): Conv3d(96, 96, kernel_size=[3, 3, 3], stride=[1, 2, 2], padding=[1, 1, 1], groups=96, bias=False)
            (norm_k): LayerNorm((96,), eps=1e-06, elementwise_affine=True)
            (pool_v): Conv3d(96, 96, kernel_size=[3, 3, 3], stride=[1, 2, 2], padding=[1, 1, 1], groups=96, bias=False)
            (norm_v): LayerNorm((96,), eps=1e-06, elementwise_affine=True)
          )
          (drop_path): DropPath()
          (norm2): LayerNorm((384,), eps=1e-06, elementwise_affine=True)
          (mlp): Mlp(
            (fc1): Linear(in_features=384, out_features=1536, bias=True)
            (act): GELU()
            (fc2): Linear(in_features=1536, out_features=384, bias=True)
          )
        )
        (7): MultiScaleBlock(
          (norm1): LayerNorm((384,), eps=1e-06, elementwise_affine=True)
          (attn): MultiScaleAttention(
            (qkv): Linear(in_features=384, out_features=1152, bias=True)
            (proj): Linear(in_features=384, out_features=384, bias=True)
            (pool_q): Conv3d(96, 96, kernel_size=[3, 3, 3], stride=[1, 1, 1], padding=[1, 1, 1], groups=96, bias=False)
            (norm_q): LayerNorm((96,), eps=1e-06, elementwise_affine=True)
            (pool_k): Conv3d(96, 96, kernel_size=[3, 3, 3], stride=[1, 2, 2], padding=[1, 1, 1], groups=96, bias=False)
            (norm_k): LayerNorm((96,), eps=1e-06, elementwise_affine=True)
            (pool_v): Conv3d(96, 96, kernel_size=[3, 3, 3], stride=[1, 2, 2], padding=[1, 1, 1], groups=96, bias=False)
            (norm_v): LayerNorm((96,), eps=1e-06, elementwise_affine=True)
          )
          (drop_path): DropPath()
          (norm2): LayerNorm((384,), eps=1e-06, elementwise_affine=True)
          (mlp): Mlp(
            (fc1): Linear(in_features=384, out_features=1536, bias=True)
            (act): GELU()
            (fc2): Linear(in_features=1536, out_features=384, bias=True)
          )
        )
        (8): MultiScaleBlock(
          (norm1): LayerNorm((384,), eps=1e-06, elementwise_affine=True)
          (attn): MultiScaleAttention(
            (qkv): Linear(in_features=384, out_features=1152, bias=True)
            (proj): Linear(in_features=384, out_features=384, bias=True)
            (pool_q): Conv3d(96, 96, kernel_size=[3, 3, 3], stride=[1, 1, 1], padding=[1, 1, 1], groups=96, bias=False)
            (norm_q): LayerNorm((96,), eps=1e-06, elementwise_affine=True)
            (pool_k): Conv3d(96, 96, kernel_size=[3, 3, 3], stride=[1, 2, 2], padding=[1, 1, 1], groups=96, bias=False)
            (norm_k): LayerNorm((96,), eps=1e-06, elementwise_affine=True)
            (pool_v): Conv3d(96, 96, kernel_size=[3, 3, 3], stride=[1, 2, 2], padding=[1, 1, 1], groups=96, bias=False)
            (norm_v): LayerNorm((96,), eps=1e-06, elementwise_affine=True)
          )
          (drop_path): DropPath()
          (norm2): LayerNorm((384,), eps=1e-06, elementwise_affine=True)
          (mlp): Mlp(
            (fc1): Linear(in_features=384, out_features=1536, bias=True)
            (act): GELU()
            (fc2): Linear(in_features=1536, out_features=384, bias=True)
          )
        )
        (9): MultiScaleBlock(
          (norm1): LayerNorm((384,), eps=1e-06, elementwise_affine=True)
          (attn): MultiScaleAttention(
            (qkv): Linear(in_features=384, out_features=1152, bias=True)
            (proj): Linear(in_features=384, out_features=384, bias=True)
            (pool_q): Conv3d(96, 96, kernel_size=[3, 3, 3], stride=[1, 1, 1], padding=[1, 1, 1], groups=96, bias=False)
            (norm_q): LayerNorm((96,), eps=1e-06, elementwise_affine=True)
            (pool_k): Conv3d(96, 96, kernel_size=[3, 3, 3], stride=[1, 2, 2], padding=[1, 1, 1], groups=96, bias=False)
            (norm_k): LayerNorm((96,), eps=1e-06, elementwise_affine=True)
            (pool_v): Conv3d(96, 96, kernel_size=[3, 3, 3], stride=[1, 2, 2], padding=[1, 1, 1], groups=96, bias=False)
            (norm_v): LayerNorm((96,), eps=1e-06, elementwise_affine=True)
          )
          (drop_path): DropPath()
          (norm2): LayerNorm((384,), eps=1e-06, elementwise_affine=True)
          (mlp): Mlp(
            (fc1): Linear(in_features=384, out_features=1536, bias=True)
            (act): GELU()
            (fc2): Linear(in_features=1536, out_features=384, bias=True)
          )
        )
        (10): MultiScaleBlock(
          (norm1): LayerNorm((384,), eps=1e-06, elementwise_affine=True)
          (attn): MultiScaleAttention(
            (qkv): Linear(in_features=384, out_features=1152, bias=True)
            (proj): Linear(in_features=384, out_features=384, bias=True)
            (pool_q): Conv3d(96, 96, kernel_size=[3, 3, 3], stride=[1, 1, 1], padding=[1, 1, 1], groups=96, bias=False)
            (norm_q): LayerNorm((96,), eps=1e-06, elementwise_affine=True)
            (pool_k): Conv3d(96, 96, kernel_size=[3, 3, 3], stride=[1, 2, 2], padding=[1, 1, 1], groups=96, bias=False)
            (norm_k): LayerNorm((96,), eps=1e-06, elementwise_affine=True)
            (pool_v): Conv3d(96, 96, kernel_size=[3, 3, 3], stride=[1, 2, 2], padding=[1, 1, 1], groups=96, bias=False)
            (norm_v): LayerNorm((96,), eps=1e-06, elementwise_affine=True)
          )
          (drop_path): DropPath()
          (norm2): LayerNorm((384,), eps=1e-06, elementwise_affine=True)
          (mlp): Mlp(
            (fc1): Linear(in_features=384, out_features=1536, bias=True)
            (act): GELU()
            (fc2): Linear(in_features=1536, out_features=384, bias=True)
          )
        )
        (11): MultiScaleBlock(
          (norm1): LayerNorm((384,), eps=1e-06, elementwise_affine=True)
          (attn): MultiScaleAttention(
            (qkv): Linear(in_features=384, out_features=1152, bias=True)
            (proj): Linear(in_features=384, out_features=384, bias=True)
            (pool_q): Conv3d(96, 96, kernel_size=[3, 3, 3], stride=[1, 1, 1], padding=[1, 1, 1], groups=96, bias=False)
            (norm_q): LayerNorm((96,), eps=1e-06, elementwise_affine=True)
            (pool_k): Conv3d(96, 96, kernel_size=[3, 3, 3], stride=[1, 2, 2], padding=[1, 1, 1], groups=96, bias=False)
            (norm_k): LayerNorm((96,), eps=1e-06, elementwise_affine=True)
            (pool_v): Conv3d(96, 96, kernel_size=[3, 3, 3], stride=[1, 2, 2], padding=[1, 1, 1], groups=96, bias=False)
            (norm_v): LayerNorm((96,), eps=1e-06, elementwise_affine=True)
          )
          (drop_path): DropPath()
          (norm2): LayerNorm((384,), eps=1e-06, elementwise_affine=True)
          (mlp): Mlp(
            (fc1): Linear(in_features=384, out_features=1536, bias=True)
            (act): GELU()
            (fc2): Linear(in_features=1536, out_features=384, bias=True)
          )
        )
        (12): MultiScaleBlock(
          (norm1): LayerNorm((384,), eps=1e-06, elementwise_affine=True)
          (attn): MultiScaleAttention(
            (qkv): Linear(in_features=384, out_features=1152, bias=True)
            (proj): Linear(in_features=384, out_features=384, bias=True)
            (pool_q): Conv3d(96, 96, kernel_size=[3, 3, 3], stride=[1, 1, 1], padding=[1, 1, 1], groups=96, bias=False)
            (norm_q): LayerNorm((96,), eps=1e-06, elementwise_affine=True)
            (pool_k): Conv3d(96, 96, kernel_size=[3, 3, 3], stride=[1, 2, 2], padding=[1, 1, 1], groups=96, bias=False)
            (norm_k): LayerNorm((96,), eps=1e-06, elementwise_affine=True)
            (pool_v): Conv3d(96, 96, kernel_size=[3, 3, 3], stride=[1, 2, 2], padding=[1, 1, 1], groups=96, bias=False)
            (norm_v): LayerNorm((96,), eps=1e-06, elementwise_affine=True)
          )
          (drop_path): DropPath()
          (norm2): LayerNorm((384,), eps=1e-06, elementwise_affine=True)
          (mlp): Mlp(
            (fc1): Linear(in_features=384, out_features=1536, bias=True)
            (act): GELU()
            (fc2): Linear(in_features=1536, out_features=384, bias=True)
          )
        )
        (13): MultiScaleBlock(
          (norm1): LayerNorm((384,), eps=1e-06, elementwise_affine=True)
          (attn): MultiScaleAttention(
            (qkv): Linear(in_features=384, out_features=1152, bias=True)
            (proj): Linear(in_features=384, out_features=384, bias=True)
            (pool_q): Conv3d(96, 96, kernel_size=[3, 3, 3], stride=[1, 1, 1], padding=[1, 1, 1], groups=96, bias=False)
            (norm_q): LayerNorm((96,), eps=1e-06, elementwise_affine=True)
            (pool_k): Conv3d(96, 96, kernel_size=[3, 3, 3], stride=[1, 2, 2], padding=[1, 1, 1], groups=96, bias=False)
            (norm_k): LayerNorm((96,), eps=1e-06, elementwise_affine=True)
            (pool_v): Conv3d(96, 96, kernel_size=[3, 3, 3], stride=[1, 2, 2], padding=[1, 1, 1], groups=96, bias=False)
            (norm_v): LayerNorm((96,), eps=1e-06, elementwise_affine=True)
          )
          (drop_path): DropPath()
          (norm2): LayerNorm((384,), eps=1e-06, elementwise_affine=True)
          (mlp): Mlp(
            (fc1): Linear(in_features=384, out_features=1536, bias=True)
            (act): GELU()
            (fc2): Linear(in_features=1536, out_features=384, bias=True)
          )
        )
        (14): MultiScaleBlock(
          (norm1): LayerNorm((384,), eps=1e-06, elementwise_affine=True)
          (attn): MultiScaleAttention(
            (qkv): Linear(in_features=384, out_features=2304, bias=True)
            (proj): Linear(in_features=768, out_features=768, bias=True)
            (pool_q): Conv3d(96, 96, kernel_size=[3, 3, 3], stride=[1, 2, 2], padding=[1, 1, 1], groups=96, bias=False)
            (norm_q): LayerNorm((96,), eps=1e-06, elementwise_affine=True)
            (pool_k): Conv3d(96, 96, kernel_size=[3, 3, 3], stride=[1, 1, 1], padding=[1, 1, 1], groups=96, bias=False)
            (norm_k): LayerNorm((96,), eps=1e-06, elementwise_affine=True)
            (pool_v): Conv3d(96, 96, kernel_size=[3, 3, 3], stride=[1, 1, 1], padding=[1, 1, 1], groups=96, bias=False)
            (norm_v): LayerNorm((96,), eps=1e-06, elementwise_affine=True)
          )
          (drop_path): DropPath()
          (norm2): LayerNorm((768,), eps=1e-06, elementwise_affine=True)
          (mlp): Mlp(
            (fc1): Linear(in_features=768, out_features=3072, bias=True)
            (act): GELU()
            (fc2): Linear(in_features=3072, out_features=768, bias=True)
          )
          (proj): Linear(in_features=384, out_features=768, bias=True)
          (pool_skip): MaxPool3d(kernel_size=[1, 3, 3], stride=[1, 2, 2], padding=[0, 1, 1], dilation=1, ceil_mode=False)
        )
        (15): MultiScaleBlock(
          (norm1): LayerNorm((768,), eps=1e-06, elementwise_affine=True)
          (attn): MultiScaleAttention(
            (qkv): Linear(in_features=768, out_features=2304, bias=True)
            (proj): Linear(in_features=768, out_features=768, bias=True)
            (pool_q): Conv3d(96, 96, kernel_size=[3, 3, 3], stride=[1, 1, 1], padding=[1, 1, 1], groups=96, bias=False)
            (norm_q): LayerNorm((96,), eps=1e-06, elementwise_affine=True)
            (pool_k): Conv3d(96, 96, kernel_size=[3, 3, 3], stride=[1, 1, 1], padding=[1, 1, 1], groups=96, bias=False)
            (norm_k): LayerNorm((96,), eps=1e-06, elementwise_affine=True)
            (pool_v): Conv3d(96, 96, kernel_size=[3, 3, 3], stride=[1, 1, 1], padding=[1, 1, 1], groups=96, bias=False)
            (norm_v): LayerNorm((96,), eps=1e-06, elementwise_affine=True)
          )
          (drop_path): DropPath()
          (norm2): LayerNorm((768,), eps=1e-06, elementwise_affine=True)
          (mlp): Mlp(
            (fc1): Linear(in_features=768, out_features=3072, bias=True)
            (act): GELU()
            (fc2): Linear(in_features=3072, out_features=768, bias=True)
          )
        )
      )
      (norm): LayerNorm((768,), eps=1e-06, elementwise_affine=True)
      (head): TransformerBasicHead(
        (dropout): Dropout(p=0.5, inplace=False)
        (projection): Linear(in_features=768, out_features=7, bias=True)
        (act): Softmax(dim=1)
      )
      (model1): MViT(
        (patch_embed): PatchEmbed(
          (proj): Conv3d(3, 96, kernel_size=[3, 7, 7], stride=[2, 4, 4], padding=[1, 3, 3])
        )
        (blocks): ModuleList(
          (0): MultiScaleBlock(
            (norm1): LayerNorm((96,), eps=1e-06, elementwise_affine=True)
            (attn): MultiScaleAttention(
              (qkv): Linear(in_features=96, out_features=288, bias=True)
              (proj): Linear(in_features=96, out_features=96, bias=True)
              (pool_q): Conv3d(96, 96, kernel_size=[3, 3, 3], stride=[1, 1, 1], padding=[1, 1, 1], groups=96, bias=False)
              (norm_q): LayerNorm((96,), eps=1e-06, elementwise_affine=True)
              (pool_k): Conv3d(96, 96, kernel_size=[3, 3, 3], stride=[1, 8, 8], padding=[1, 1, 1], groups=96, bias=False)
              (norm_k): LayerNorm((96,), eps=1e-06, elementwise_affine=True)
              (pool_v): Conv3d(96, 96, kernel_size=[3, 3, 3], stride=[1, 8, 8], padding=[1, 1, 1], groups=96, bias=False)
              (norm_v): LayerNorm((96,), eps=1e-06, elementwise_affine=True)
            )
            (drop_path): Identity()
            (norm2): LayerNorm((96,), eps=1e-06, elementwise_affine=True)
            (mlp): Mlp(
              (fc1): Linear(in_features=96, out_features=384, bias=True)
              (act): GELU()
              (fc2): Linear(in_features=384, out_features=96, bias=True)
            )
          )
          (1): MultiScaleBlock(
            (norm1): LayerNorm((96,), eps=1e-06, elementwise_affine=True)
            (attn): MultiScaleAttention(
              (qkv): Linear(in_features=96, out_features=576, bias=True)
              (proj): Linear(in_features=192, out_features=192, bias=True)
              (pool_q): Conv3d(96, 96, kernel_size=[3, 3, 3], stride=[1, 2, 2], padding=[1, 1, 1], groups=96, bias=False)
              (norm_q): LayerNorm((96,), eps=1e-06, elementwise_affine=True)
              (pool_k): Conv3d(96, 96, kernel_size=[3, 3, 3], stride=[1, 4, 4], padding=[1, 1, 1], groups=96, bias=False)
              (norm_k): LayerNorm((96,), eps=1e-06, elementwise_affine=True)
              (pool_v): Conv3d(96, 96, kernel_size=[3, 3, 3], stride=[1, 4, 4], padding=[1, 1, 1], groups=96, bias=False)
              (norm_v): LayerNorm((96,), eps=1e-06, elementwise_affine=True)
            )
            (drop_path): DropPath()
            (norm2): LayerNorm((192,), eps=1e-06, elementwise_affine=True)
            (mlp): Mlp(
              (fc1): Linear(in_features=192, out_features=768, bias=True)
              (act): GELU()
              (fc2): Linear(in_features=768, out_features=192, bias=True)
            )
            (proj): Linear(in_features=96, out_features=192, bias=True)
            (pool_skip): MaxPool3d(kernel_size=[1, 3, 3], stride=[1, 2, 2], padding=[0, 1, 1], dilation=1, ceil_mode=False)
          )
          (2): MultiScaleBlock(
            (norm1): LayerNorm((192,), eps=1e-06, elementwise_affine=True)
            (attn): MultiScaleAttention(
              (qkv): Linear(in_features=192, out_features=576, bias=True)
              (proj): Linear(in_features=192, out_features=192, bias=True)
              (pool_q): Conv3d(96, 96, kernel_size=[3, 3, 3], stride=[1, 1, 1], padding=[1, 1, 1], groups=96, bias=False)
              (norm_q): LayerNorm((96,), eps=1e-06, elementwise_affine=True)
              (pool_k): Conv3d(96, 96, kernel_size=[3, 3, 3], stride=[1, 4, 4], padding=[1, 1, 1], groups=96, bias=False)
              (norm_k): LayerNorm((96,), eps=1e-06, elementwise_affine=True)
              (pool_v): Conv3d(96, 96, kernel_size=[3, 3, 3], stride=[1, 4, 4], padding=[1, 1, 1], groups=96, bias=False)
              (norm_v): LayerNorm((96,), eps=1e-06, elementwise_affine=True)
            )
            (drop_path): DropPath()
            (norm2): LayerNorm((192,), eps=1e-06, elementwise_affine=True)
            (mlp): Mlp(
              (fc1): Linear(in_features=192, out_features=768, bias=True)
              (act): GELU()
              (fc2): Linear(in_features=768, out_features=192, bias=True)
            )
          )
          (3): MultiScaleBlock(
            (norm1): LayerNorm((192,), eps=1e-06, elementwise_affine=True)
            (attn): MultiScaleAttention(
              (qkv): Linear(in_features=192, out_features=1152, bias=True)
              (proj): Linear(in_features=384, out_features=384, bias=True)
              (pool_q): Conv3d(96, 96, kernel_size=[3, 3, 3], stride=[1, 2, 2], padding=[1, 1, 1], groups=96, bias=False)
              (norm_q): LayerNorm((96,), eps=1e-06, elementwise_affine=True)
              (pool_k): Conv3d(96, 96, kernel_size=[3, 3, 3], stride=[1, 2, 2], padding=[1, 1, 1], groups=96, bias=False)
              (norm_k): LayerNorm((96,), eps=1e-06, elementwise_affine=True)
              (pool_v): Conv3d(96, 96, kernel_size=[3, 3, 3], stride=[1, 2, 2], padding=[1, 1, 1], groups=96, bias=False)
              (norm_v): LayerNorm((96,), eps=1e-06, elementwise_affine=True)
            )
            (drop_path): DropPath()
            (norm2): LayerNorm((384,), eps=1e-06, elementwise_affine=True)
            (mlp): Mlp(
              (fc1): Linear(in_features=384, out_features=1536, bias=True)
              (act): GELU()
              (fc2): Linear(in_features=1536, out_features=384, bias=True)
            )
            (proj): Linear(in_features=192, out_features=384, bias=True)
            (pool_skip): MaxPool3d(kernel_size=[1, 3, 3], stride=[1, 2, 2], padding=[0, 1, 1], dilation=1, ceil_mode=False)
          )
          (4): MultiScaleBlock(
            (norm1): LayerNorm((384,), eps=1e-06, elementwise_affine=True)
            (attn): MultiScaleAttention(
              (qkv): Linear(in_features=384, out_features=1152, bias=True)
              (proj): Linear(in_features=384, out_features=384, bias=True)
              (pool_q): Conv3d(96, 96, kernel_size=[3, 3, 3], stride=[1, 1, 1], padding=[1, 1, 1], groups=96, bias=False)
              (norm_q): LayerNorm((96,), eps=1e-06, elementwise_affine=True)
              (pool_k): Conv3d(96, 96, kernel_size=[3, 3, 3], stride=[1, 2, 2], padding=[1, 1, 1], groups=96, bias=False)
              (norm_k): LayerNorm((96,), eps=1e-06, elementwise_affine=True)
              (pool_v): Conv3d(96, 96, kernel_size=[3, 3, 3], stride=[1, 2, 2], padding=[1, 1, 1], groups=96, bias=False)
              (norm_v): LayerNorm((96,), eps=1e-06, elementwise_affine=True)
            )
            (drop_path): DropPath()
            (norm2): LayerNorm((384,), eps=1e-06, elementwise_affine=True)
            (mlp): Mlp(
              (fc1): Linear(in_features=384, out_features=1536, bias=True)
              (act): GELU()
              (fc2): Linear(in_features=1536, out_features=384, bias=True)
            )
          )
          (5): MultiScaleBlock(
            (norm1): LayerNorm((384,), eps=1e-06, elementwise_affine=True)
            (attn): MultiScaleAttention(
              (qkv): Linear(in_features=384, out_features=1152, bias=True)
              (proj): Linear(in_features=384, out_features=384, bias=True)
              (pool_q): Conv3d(96, 96, kernel_size=[3, 3, 3], stride=[1, 1, 1], padding=[1, 1, 1], groups=96, bias=False)
              (norm_q): LayerNorm((96,), eps=1e-06, elementwise_affine=True)
              (pool_k): Conv3d(96, 96, kernel_size=[3, 3, 3], stride=[1, 2, 2], padding=[1, 1, 1], groups=96, bias=False)
              (norm_k): LayerNorm((96,), eps=1e-06, elementwise_affine=True)
              (pool_v): Conv3d(96, 96, kernel_size=[3, 3, 3], stride=[1, 2, 2], padding=[1, 1, 1], groups=96, bias=False)
              (norm_v): LayerNorm((96,), eps=1e-06, elementwise_affine=True)
            )
            (drop_path): DropPath()
            (norm2): LayerNorm((384,), eps=1e-06, elementwise_affine=True)
            (mlp): Mlp(
              (fc1): Linear(in_features=384, out_features=1536, bias=True)
              (act): GELU()
              (fc2): Linear(in_features=1536, out_features=384, bias=True)
            )
          )
          (6): MultiScaleBlock(
            (norm1): LayerNorm((384,), eps=1e-06, elementwise_affine=True)
            (attn): MultiScaleAttention(
              (qkv): Linear(in_features=384, out_features=1152, bias=True)
              (proj): Linear(in_features=384, out_features=384, bias=True)
              (pool_q): Conv3d(96, 96, kernel_size=[3, 3, 3], stride=[1, 1, 1], padding=[1, 1, 1], groups=96, bias=False)
              (norm_q): LayerNorm((96,), eps=1e-06, elementwise_affine=True)
              (pool_k): Conv3d(96, 96, kernel_size=[3, 3, 3], stride=[1, 2, 2], padding=[1, 1, 1], groups=96, bias=False)
              (norm_k): LayerNorm((96,), eps=1e-06, elementwise_affine=True)
              (pool_v): Conv3d(96, 96, kernel_size=[3, 3, 3], stride=[1, 2, 2], padding=[1, 1, 1], groups=96, bias=False)
              (norm_v): LayerNorm((96,), eps=1e-06, elementwise_affine=True)
            )
            (drop_path): DropPath()
            (norm2): LayerNorm((384,), eps=1e-06, elementwise_affine=True)
            (mlp): Mlp(
              (fc1): Linear(in_features=384, out_features=1536, bias=True)
              (act): GELU()
              (fc2): Linear(in_features=1536, out_features=384, bias=True)
            )
          )
          (7): MultiScaleBlock(
            (norm1): LayerNorm((384,), eps=1e-06, elementwise_affine=True)
            (attn): MultiScaleAttention(
              (qkv): Linear(in_features=384, out_features=1152, bias=True)
              (proj): Linear(in_features=384, out_features=384, bias=True)
              (pool_q): Conv3d(96, 96, kernel_size=[3, 3, 3], stride=[1, 1, 1], padding=[1, 1, 1], groups=96, bias=False)
              (norm_q): LayerNorm((96,), eps=1e-06, elementwise_affine=True)
              (pool_k): Conv3d(96, 96, kernel_size=[3, 3, 3], stride=[1, 2, 2], padding=[1, 1, 1], groups=96, bias=False)
              (norm_k): LayerNorm((96,), eps=1e-06, elementwise_affine=True)
              (pool_v): Conv3d(96, 96, kernel_size=[3, 3, 3], stride=[1, 2, 2], padding=[1, 1, 1], groups=96, bias=False)
              (norm_v): LayerNorm((96,), eps=1e-06, elementwise_affine=True)
            )
            (drop_path): DropPath()
            (norm2): LayerNorm((384,), eps=1e-06, elementwise_affine=True)
            (mlp): Mlp(
              (fc1): Linear(in_features=384, out_features=1536, bias=True)
              (act): GELU()
              (fc2): Linear(in_features=1536, out_features=384, bias=True)
            )
          )
          (8): MultiScaleBlock(
            (norm1): LayerNorm((384,), eps=1e-06, elementwise_affine=True)
            (attn): MultiScaleAttention(
              (qkv): Linear(in_features=384, out_features=1152, bias=True)
              (proj): Linear(in_features=384, out_features=384, bias=True)
              (pool_q): Conv3d(96, 96, kernel_size=[3, 3, 3], stride=[1, 1, 1], padding=[1, 1, 1], groups=96, bias=False)
              (norm_q): LayerNorm((96,), eps=1e-06, elementwise_affine=True)
              (pool_k): Conv3d(96, 96, kernel_size=[3, 3, 3], stride=[1, 2, 2], padding=[1, 1, 1], groups=96, bias=False)
              (norm_k): LayerNorm((96,), eps=1e-06, elementwise_affine=True)
              (pool_v): Conv3d(96, 96, kernel_size=[3, 3, 3], stride=[1, 2, 2], padding=[1, 1, 1], groups=96, bias=False)
              (norm_v): LayerNorm((96,), eps=1e-06, elementwise_affine=True)
            )
            (drop_path): DropPath()
            (norm2): LayerNorm((384,), eps=1e-06, elementwise_affine=True)
            (mlp): Mlp(
              (fc1): Linear(in_features=384, out_features=1536, bias=True)
              (act): GELU()
              (fc2): Linear(in_features=1536, out_features=384, bias=True)
            )
          )
          (9): MultiScaleBlock(
            (norm1): LayerNorm((384,), eps=1e-06, elementwise_affine=True)
            (attn): MultiScaleAttention(
              (qkv): Linear(in_features=384, out_features=1152, bias=True)
              (proj): Linear(in_features=384, out_features=384, bias=True)
              (pool_q): Conv3d(96, 96, kernel_size=[3, 3, 3], stride=[1, 1, 1], padding=[1, 1, 1], groups=96, bias=False)
              (norm_q): LayerNorm((96,), eps=1e-06, elementwise_affine=True)
              (pool_k): Conv3d(96, 96, kernel_size=[3, 3, 3], stride=[1, 2, 2], padding=[1, 1, 1], groups=96, bias=False)
              (norm_k): LayerNorm((96,), eps=1e-06, elementwise_affine=True)
              (pool_v): Conv3d(96, 96, kernel_size=[3, 3, 3], stride=[1, 2, 2], padding=[1, 1, 1], groups=96, bias=False)
              (norm_v): LayerNorm((96,), eps=1e-06, elementwise_affine=True)
            )
            (drop_path): DropPath()
            (norm2): LayerNorm((384,), eps=1e-06, elementwise_affine=True)
            (mlp): Mlp(
              (fc1): Linear(in_features=384, out_features=1536, bias=True)
              (act): GELU()
              (fc2): Linear(in_features=1536, out_features=384, bias=True)
            )
          )
          (10): MultiScaleBlock(
            (norm1): LayerNorm((384,), eps=1e-06, elementwise_affine=True)
            (attn): MultiScaleAttention(
              (qkv): Linear(in_features=384, out_features=1152, bias=True)
              (proj): Linear(in_features=384, out_features=384, bias=True)
              (pool_q): Conv3d(96, 96, kernel_size=[3, 3, 3], stride=[1, 1, 1], padding=[1, 1, 1], groups=96, bias=False)
              (norm_q): LayerNorm((96,), eps=1e-06, elementwise_affine=True)
              (pool_k): Conv3d(96, 96, kernel_size=[3, 3, 3], stride=[1, 2, 2], padding=[1, 1, 1], groups=96, bias=False)
              (norm_k): LayerNorm((96,), eps=1e-06, elementwise_affine=True)
              (pool_v): Conv3d(96, 96, kernel_size=[3, 3, 3], stride=[1, 2, 2], padding=[1, 1, 1], groups=96, bias=False)
              (norm_v): LayerNorm((96,), eps=1e-06, elementwise_affine=True)
            )
            (drop_path): DropPath()
            (norm2): LayerNorm((384,), eps=1e-06, elementwise_affine=True)
            (mlp): Mlp(
              (fc1): Linear(in_features=384, out_features=1536, bias=True)
              (act): GELU()
              (fc2): Linear(in_features=1536, out_features=384, bias=True)
            )
          )
          (11): MultiScaleBlock(
            (norm1): LayerNorm((384,), eps=1e-06, elementwise_affine=True)
            (attn): MultiScaleAttention(
              (qkv): Linear(in_features=384, out_features=1152, bias=True)
              (proj): Linear(in_features=384, out_features=384, bias=True)
              (pool_q): Conv3d(96, 96, kernel_size=[3, 3, 3], stride=[1, 1, 1], padding=[1, 1, 1], groups=96, bias=False)
              (norm_q): LayerNorm((96,), eps=1e-06, elementwise_affine=True)
              (pool_k): Conv3d(96, 96, kernel_size=[3, 3, 3], stride=[1, 2, 2], padding=[1, 1, 1], groups=96, bias=False)
              (norm_k): LayerNorm((96,), eps=1e-06, elementwise_affine=True)
              (pool_v): Conv3d(96, 96, kernel_size=[3, 3, 3], stride=[1, 2, 2], padding=[1, 1, 1], groups=96, bias=False)
              (norm_v): LayerNorm((96,), eps=1e-06, elementwise_affine=True)
            )
            (drop_path): DropPath()
            (norm2): LayerNorm((384,), eps=1e-06, elementwise_affine=True)
            (mlp): Mlp(
              (fc1): Linear(in_features=384, out_features=1536, bias=True)
              (act): GELU()
              (fc2): Linear(in_features=1536, out_features=384, bias=True)
            )
          )
          (12): MultiScaleBlock(
            (norm1): LayerNorm((384,), eps=1e-06, elementwise_affine=True)
            (attn): MultiScaleAttention(
              (qkv): Linear(in_features=384, out_features=1152, bias=True)
              (proj): Linear(in_features=384, out_features=384, bias=True)
              (pool_q): Conv3d(96, 96, kernel_size=[3, 3, 3], stride=[1, 1, 1], padding=[1, 1, 1], groups=96, bias=False)
              (norm_q): LayerNorm((96,), eps=1e-06, elementwise_affine=True)
              (pool_k): Conv3d(96, 96, kernel_size=[3, 3, 3], stride=[1, 2, 2], padding=[1, 1, 1], groups=96, bias=False)
              (norm_k): LayerNorm((96,), eps=1e-06, elementwise_affine=True)
              (pool_v): Conv3d(96, 96, kernel_size=[3, 3, 3], stride=[1, 2, 2], padding=[1, 1, 1], groups=96, bias=False)
              (norm_v): LayerNorm((96,), eps=1e-06, elementwise_affine=True)
            )
            (drop_path): DropPath()
            (norm2): LayerNorm((384,), eps=1e-06, elementwise_affine=True)
            (mlp): Mlp(
              (fc1): Linear(in_features=384, out_features=1536, bias=True)
              (act): GELU()
              (fc2): Linear(in_features=1536, out_features=384, bias=True)
            )
          )
          (13): MultiScaleBlock(
            (norm1): LayerNorm((384,), eps=1e-06, elementwise_affine=True)
            (attn): MultiScaleAttention(
              (qkv): Linear(in_features=384, out_features=1152, bias=True)
              (proj): Linear(in_features=384, out_features=384, bias=True)
              (pool_q): Conv3d(96, 96, kernel_size=[3, 3, 3], stride=[1, 1, 1], padding=[1, 1, 1], groups=96, bias=False)
              (norm_q): LayerNorm((96,), eps=1e-06, elementwise_affine=True)
              (pool_k): Conv3d(96, 96, kernel_size=[3, 3, 3], stride=[1, 2, 2], padding=[1, 1, 1], groups=96, bias=False)
              (norm_k): LayerNorm((96,), eps=1e-06, elementwise_affine=True)
              (pool_v): Conv3d(96, 96, kernel_size=[3, 3, 3], stride=[1, 2, 2], padding=[1, 1, 1], groups=96, bias=False)
              (norm_v): LayerNorm((96,), eps=1e-06, elementwise_affine=True)
            )
            (drop_path): DropPath()
            (norm2): LayerNorm((384,), eps=1e-06, elementwise_affine=True)
            (mlp): Mlp(
              (fc1): Linear(in_features=384, out_features=1536, bias=True)
              (act): GELU()
              (fc2): Linear(in_features=1536, out_features=384, bias=True)
            )
          )
          (14): MultiScaleBlock(
            (norm1): LayerNorm((384,), eps=1e-06, elementwise_affine=True)
            (attn): MultiScaleAttention(
              (qkv): Linear(in_features=384, out_features=2304, bias=True)
              (proj): Linear(in_features=768, out_features=768, bias=True)
              (pool_q): Conv3d(96, 96, kernel_size=[3, 3, 3], stride=[1, 2, 2], padding=[1, 1, 1], groups=96, bias=False)
              (norm_q): LayerNorm((96,), eps=1e-06, elementwise_affine=True)
              (pool_k): Conv3d(96, 96, kernel_size=[3, 3, 3], stride=[1, 1, 1], padding=[1, 1, 1], groups=96, bias=False)
              (norm_k): LayerNorm((96,), eps=1e-06, elementwise_affine=True)
              (pool_v): Conv3d(96, 96, kernel_size=[3, 3, 3], stride=[1, 1, 1], padding=[1, 1, 1], groups=96, bias=False)
              (norm_v): LayerNorm((96,), eps=1e-06, elementwise_affine=True)
            )
            (drop_path): DropPath()
            (norm2): LayerNorm((768,), eps=1e-06, elementwise_affine=True)
            (mlp): Mlp(
              (fc1): Linear(in_features=768, out_features=3072, bias=True)
              (act): GELU()
              (fc2): Linear(in_features=3072, out_features=768, bias=True)
            )
            (proj): Linear(in_features=384, out_features=768, bias=True)
            (pool_skip): MaxPool3d(kernel_size=[1, 3, 3], stride=[1, 2, 2], padding=[0, 1, 1], dilation=1, ceil_mode=False)
          )
          (15): MultiScaleBlock(
            (norm1): LayerNorm((768,), eps=1e-06, elementwise_affine=True)
            (attn): MultiScaleAttention(
              (qkv): Linear(in_features=768, out_features=2304, bias=True)
              (proj): Linear(in_features=768, out_features=768, bias=True)
              (pool_q): Conv3d(96, 96, kernel_size=[3, 3, 3], stride=[1, 1, 1], padding=[1, 1, 1], groups=96, bias=False)
              (norm_q): LayerNorm((96,), eps=1e-06, elementwise_affine=True)
              (pool_k): Conv3d(96, 96, kernel_size=[3, 3, 3], stride=[1, 1, 1], padding=[1, 1, 1], groups=96, bias=False)
              (norm_k): LayerNorm((96,), eps=1e-06, elementwise_affine=True)
              (pool_v): Conv3d(96, 96, kernel_size=[3, 3, 3], stride=[1, 1, 1], padding=[1, 1, 1], groups=96, bias=False)
              (norm_v): LayerNorm((96,), eps=1e-06, elementwise_affine=True)
            )
            (drop_path): DropPath()
            (norm2): LayerNorm((768,), eps=1e-06, elementwise_affine=True)
            (mlp): Mlp(
              (fc1): Linear(in_features=768, out_features=3072, bias=True)
              (act): GELU()
              (fc2): Linear(in_features=3072, out_features=768, bias=True)
            )
          )
        )
        (norm): LayerNorm((768,), eps=1e-06, elementwise_affine=True)
        (head): TransformerBasicHead(
          (dropout): Dropout(p=0.5, inplace=False)
          (projection): Linear(in_features=768, out_features=7, bias=True)
          (act): Softmax(dim=1)
        )
      )
      (model2): MViT(
        (patch_embed): PatchEmbed(
          (proj): Conv3d(3, 96, kernel_size=[3, 7, 7], stride=[2, 4, 4], padding=[1, 3, 3])
        )
        (blocks): ModuleList(
          (0): MultiScaleBlock(
            (norm1): LayerNorm((96,), eps=1e-06, elementwise_affine=True)
            (attn): MultiScaleAttention(
              (qkv): Linear(in_features=96, out_features=288, bias=True)
              (proj): Linear(in_features=96, out_features=96, bias=True)
              (pool_q): Conv3d(96, 96, kernel_size=[3, 3, 3], stride=[1, 1, 1], padding=[1, 1, 1], groups=96, bias=False)
              (norm_q): LayerNorm((96,), eps=1e-06, elementwise_affine=True)
              (pool_k): Conv3d(96, 96, kernel_size=[3, 3, 3], stride=[1, 8, 8], padding=[1, 1, 1], groups=96, bias=False)
              (norm_k): LayerNorm((96,), eps=1e-06, elementwise_affine=True)
              (pool_v): Conv3d(96, 96, kernel_size=[3, 3, 3], stride=[1, 8, 8], padding=[1, 1, 1], groups=96, bias=False)
              (norm_v): LayerNorm((96,), eps=1e-06, elementwise_affine=True)
            )
            (drop_path): Identity()
            (norm2): LayerNorm((96,), eps=1e-06, elementwise_affine=True)
            (mlp): Mlp(
              (fc1): Linear(in_features=96, out_features=384, bias=True)
              (act): GELU()
              (fc2): Linear(in_features=384, out_features=96, bias=True)
            )
          )
          (1): MultiScaleBlock(
            (norm1): LayerNorm((96,), eps=1e-06, elementwise_affine=True)
            (attn): MultiScaleAttention(
              (qkv): Linear(in_features=96, out_features=576, bias=True)
              (proj): Linear(in_features=192, out_features=192, bias=True)
              (pool_q): Conv3d(96, 96, kernel_size=[3, 3, 3], stride=[1, 2, 2], padding=[1, 1, 1], groups=96, bias=False)
              (norm_q): LayerNorm((96,), eps=1e-06, elementwise_affine=True)
              (pool_k): Conv3d(96, 96, kernel_size=[3, 3, 3], stride=[1, 4, 4], padding=[1, 1, 1], groups=96, bias=False)
              (norm_k): LayerNorm((96,), eps=1e-06, elementwise_affine=True)
              (pool_v): Conv3d(96, 96, kernel_size=[3, 3, 3], stride=[1, 4, 4], padding=[1, 1, 1], groups=96, bias=False)
              (norm_v): LayerNorm((96,), eps=1e-06, elementwise_affine=True)
            )
            (drop_path): DropPath()
            (norm2): LayerNorm((192,), eps=1e-06, elementwise_affine=True)
            (mlp): Mlp(
              (fc1): Linear(in_features=192, out_features=768, bias=True)
              (act): GELU()
              (fc2): Linear(in_features=768, out_features=192, bias=True)
            )
            (proj): Linear(in_features=96, out_features=192, bias=True)
            (pool_skip): MaxPool3d(kernel_size=[1, 3, 3], stride=[1, 2, 2], padding=[0, 1, 1], dilation=1, ceil_mode=False)
          )
          (2): MultiScaleBlock(
            (norm1): LayerNorm((192,), eps=1e-06, elementwise_affine=True)
            (attn): MultiScaleAttention(
              (qkv): Linear(in_features=192, out_features=576, bias=True)
              (proj): Linear(in_features=192, out_features=192, bias=True)
              (pool_q): Conv3d(96, 96, kernel_size=[3, 3, 3], stride=[1, 1, 1], padding=[1, 1, 1], groups=96, bias=False)
              (norm_q): LayerNorm((96,), eps=1e-06, elementwise_affine=True)
              (pool_k): Conv3d(96, 96, kernel_size=[3, 3, 3], stride=[1, 4, 4], padding=[1, 1, 1], groups=96, bias=False)
              (norm_k): LayerNorm((96,), eps=1e-06, elementwise_affine=True)
              (pool_v): Conv3d(96, 96, kernel_size=[3, 3, 3], stride=[1, 4, 4], padding=[1, 1, 1], groups=96, bias=False)
              (norm_v): LayerNorm((96,), eps=1e-06, elementwise_affine=True)
            )
            (drop_path): DropPath()
            (norm2): LayerNorm((192,), eps=1e-06, elementwise_affine=True)
            (mlp): Mlp(
              (fc1): Linear(in_features=192, out_features=768, bias=True)
              (act): GELU()
              (fc2): Linear(in_features=768, out_features=192, bias=True)
            )
          )
          (3): MultiScaleBlock(
            (norm1): LayerNorm((192,), eps=1e-06, elementwise_affine=True)
            (attn): MultiScaleAttention(
              (qkv): Linear(in_features=192, out_features=1152, bias=True)
              (proj): Linear(in_features=384, out_features=384, bias=True)
              (pool_q): Conv3d(96, 96, kernel_size=[3, 3, 3], stride=[1, 2, 2], padding=[1, 1, 1], groups=96, bias=False)
              (norm_q): LayerNorm((96,), eps=1e-06, elementwise_affine=True)
              (pool_k): Conv3d(96, 96, kernel_size=[3, 3, 3], stride=[1, 2, 2], padding=[1, 1, 1], groups=96, bias=False)
              (norm_k): LayerNorm((96,), eps=1e-06, elementwise_affine=True)
              (pool_v): Conv3d(96, 96, kernel_size=[3, 3, 3], stride=[1, 2, 2], padding=[1, 1, 1], groups=96, bias=False)
              (norm_v): LayerNorm((96,), eps=1e-06, elementwise_affine=True)
            )
            (drop_path): DropPath()
            (norm2): LayerNorm((384,), eps=1e-06, elementwise_affine=True)
            (mlp): Mlp(
              (fc1): Linear(in_features=384, out_features=1536, bias=True)
              (act): GELU()
              (fc2): Linear(in_features=1536, out_features=384, bias=True)
            )
            (proj): Linear(in_features=192, out_features=384, bias=True)
            (pool_skip): MaxPool3d(kernel_size=[1, 3, 3], stride=[1, 2, 2], padding=[0, 1, 1], dilation=1, ceil_mode=False)
          )
          (4): MultiScaleBlock(
            (norm1): LayerNorm((384,), eps=1e-06, elementwise_affine=True)
            (attn): MultiScaleAttention(
              (qkv): Linear(in_features=384, out_features=1152, bias=True)
              (proj): Linear(in_features=384, out_features=384, bias=True)
              (pool_q): Conv3d(96, 96, kernel_size=[3, 3, 3], stride=[1, 1, 1], padding=[1, 1, 1], groups=96, bias=False)
              (norm_q): LayerNorm((96,), eps=1e-06, elementwise_affine=True)
              (pool_k): Conv3d(96, 96, kernel_size=[3, 3, 3], stride=[1, 2, 2], padding=[1, 1, 1], groups=96, bias=False)
              (norm_k): LayerNorm((96,), eps=1e-06, elementwise_affine=True)
              (pool_v): Conv3d(96, 96, kernel_size=[3, 3, 3], stride=[1, 2, 2], padding=[1, 1, 1], groups=96, bias=False)
              (norm_v): LayerNorm((96,), eps=1e-06, elementwise_affine=True)
            )
            (drop_path): DropPath()
            (norm2): LayerNorm((384,), eps=1e-06, elementwise_affine=True)
            (mlp): Mlp(
              (fc1): Linear(in_features=384, out_features=1536, bias=True)
              (act): GELU()
              (fc2): Linear(in_features=1536, out_features=384, bias=True)
            )
          )
          (5): MultiScaleBlock(
            (norm1): LayerNorm((384,), eps=1e-06, elementwise_affine=True)
            (attn): MultiScaleAttention(
              (qkv): Linear(in_features=384, out_features=1152, bias=True)
              (proj): Linear(in_features=384, out_features=384, bias=True)
              (pool_q): Conv3d(96, 96, kernel_size=[3, 3, 3], stride=[1, 1, 1], padding=[1, 1, 1], groups=96, bias=False)
              (norm_q): LayerNorm((96,), eps=1e-06, elementwise_affine=True)
              (pool_k): Conv3d(96, 96, kernel_size=[3, 3, 3], stride=[1, 2, 2], padding=[1, 1, 1], groups=96, bias=False)
              (norm_k): LayerNorm((96,), eps=1e-06, elementwise_affine=True)
              (pool_v): Conv3d(96, 96, kernel_size=[3, 3, 3], stride=[1, 2, 2], padding=[1, 1, 1], groups=96, bias=False)
              (norm_v): LayerNorm((96,), eps=1e-06, elementwise_affine=True)
            )
            (drop_path): DropPath()
            (norm2): LayerNorm((384,), eps=1e-06, elementwise_affine=True)
            (mlp): Mlp(
              (fc1): Linear(in_features=384, out_features=1536, bias=True)
              (act): GELU()
              (fc2): Linear(in_features=1536, out_features=384, bias=True)
            )
          )
          (6): MultiScaleBlock(
            (norm1): LayerNorm((384,), eps=1e-06, elementwise_affine=True)
            (attn): MultiScaleAttention(
              (qkv): Linear(in_features=384, out_features=1152, bias=True)
              (proj): Linear(in_features=384, out_features=384, bias=True)
              (pool_q): Conv3d(96, 96, kernel_size=[3, 3, 3], stride=[1, 1, 1], padding=[1, 1, 1], groups=96, bias=False)
              (norm_q): LayerNorm((96,), eps=1e-06, elementwise_affine=True)
              (pool_k): Conv3d(96, 96, kernel_size=[3, 3, 3], stride=[1, 2, 2], padding=[1, 1, 1], groups=96, bias=False)
              (norm_k): LayerNorm((96,), eps=1e-06, elementwise_affine=True)
              (pool_v): Conv3d(96, 96, kernel_size=[3, 3, 3], stride=[1, 2, 2], padding=[1, 1, 1], groups=96, bias=False)
              (norm_v): LayerNorm((96,), eps=1e-06, elementwise_affine=True)
            )
            (drop_path): DropPath()
            (norm2): LayerNorm((384,), eps=1e-06, elementwise_affine=True)
            (mlp): Mlp(
              (fc1): Linear(in_features=384, out_features=1536, bias=True)
              (act): GELU()
              (fc2): Linear(in_features=1536, out_features=384, bias=True)
            )
          )
          (7): MultiScaleBlock(
            (norm1): LayerNorm((384,), eps=1e-06, elementwise_affine=True)
            (attn): MultiScaleAttention(
              (qkv): Linear(in_features=384, out_features=1152, bias=True)
              (proj): Linear(in_features=384, out_features=384, bias=True)
              (pool_q): Conv3d(96, 96, kernel_size=[3, 3, 3], stride=[1, 1, 1], padding=[1, 1, 1], groups=96, bias=False)
              (norm_q): LayerNorm((96,), eps=1e-06, elementwise_affine=True)
              (pool_k): Conv3d(96, 96, kernel_size=[3, 3, 3], stride=[1, 2, 2], padding=[1, 1, 1], groups=96, bias=False)
              (norm_k): LayerNorm((96,), eps=1e-06, elementwise_affine=True)
              (pool_v): Conv3d(96, 96, kernel_size=[3, 3, 3], stride=[1, 2, 2], padding=[1, 1, 1], groups=96, bias=False)
              (norm_v): LayerNorm((96,), eps=1e-06, elementwise_affine=True)
            )
            (drop_path): DropPath()
            (norm2): LayerNorm((384,), eps=1e-06, elementwise_affine=True)
            (mlp): Mlp(
              (fc1): Linear(in_features=384, out_features=1536, bias=True)
              (act): GELU()
              (fc2): Linear(in_features=1536, out_features=384, bias=True)
            )
          )
          (8): MultiScaleBlock(
            (norm1): LayerNorm((384,), eps=1e-06, elementwise_affine=True)
            (attn): MultiScaleAttention(
              (qkv): Linear(in_features=384, out_features=1152, bias=True)
              (proj): Linear(in_features=384, out_features=384, bias=True)
              (pool_q): Conv3d(96, 96, kernel_size=[3, 3, 3], stride=[1, 1, 1], padding=[1, 1, 1], groups=96, bias=False)
              (norm_q): LayerNorm((96,), eps=1e-06, elementwise_affine=True)
              (pool_k): Conv3d(96, 96, kernel_size=[3, 3, 3], stride=[1, 2, 2], padding=[1, 1, 1], groups=96, bias=False)
              (norm_k): LayerNorm((96,), eps=1e-06, elementwise_affine=True)
              (pool_v): Conv3d(96, 96, kernel_size=[3, 3, 3], stride=[1, 2, 2], padding=[1, 1, 1], groups=96, bias=False)
              (norm_v): LayerNorm((96,), eps=1e-06, elementwise_affine=True)
            )
            (drop_path): DropPath()
            (norm2): LayerNorm((384,), eps=1e-06, elementwise_affine=True)
            (mlp): Mlp(
              (fc1): Linear(in_features=384, out_features=1536, bias=True)
              (act): GELU()
              (fc2): Linear(in_features=1536, out_features=384, bias=True)
            )
          )
          (9): MultiScaleBlock(
            (norm1): LayerNorm((384,), eps=1e-06, elementwise_affine=True)
            (attn): MultiScaleAttention(
              (qkv): Linear(in_features=384, out_features=1152, bias=True)
              (proj): Linear(in_features=384, out_features=384, bias=True)
              (pool_q): Conv3d(96, 96, kernel_size=[3, 3, 3], stride=[1, 1, 1], padding=[1, 1, 1], groups=96, bias=False)
              (norm_q): LayerNorm((96,), eps=1e-06, elementwise_affine=True)
              (pool_k): Conv3d(96, 96, kernel_size=[3, 3, 3], stride=[1, 2, 2], padding=[1, 1, 1], groups=96, bias=False)
              (norm_k): LayerNorm((96,), eps=1e-06, elementwise_affine=True)
              (pool_v): Conv3d(96, 96, kernel_size=[3, 3, 3], stride=[1, 2, 2], padding=[1, 1, 1], groups=96, bias=False)
              (norm_v): LayerNorm((96,), eps=1e-06, elementwise_affine=True)
            )
            (drop_path): DropPath()
            (norm2): LayerNorm((384,), eps=1e-06, elementwise_affine=True)
            (mlp): Mlp(
              (fc1): Linear(in_features=384, out_features=1536, bias=True)
              (act): GELU()
              (fc2): Linear(in_features=1536, out_features=384, bias=True)
            )
          )
          (10): MultiScaleBlock(
            (norm1): LayerNorm((384,), eps=1e-06, elementwise_affine=True)
            (attn): MultiScaleAttention(
              (qkv): Linear(in_features=384, out_features=1152, bias=True)
              (proj): Linear(in_features=384, out_features=384, bias=True)
              (pool_q): Conv3d(96, 96, kernel_size=[3, 3, 3], stride=[1, 1, 1], padding=[1, 1, 1], groups=96, bias=False)
              (norm_q): LayerNorm((96,), eps=1e-06, elementwise_affine=True)
              (pool_k): Conv3d(96, 96, kernel_size=[3, 3, 3], stride=[1, 2, 2], padding=[1, 1, 1], groups=96, bias=False)
              (norm_k): LayerNorm((96,), eps=1e-06, elementwise_affine=True)
              (pool_v): Conv3d(96, 96, kernel_size=[3, 3, 3], stride=[1, 2, 2], padding=[1, 1, 1], groups=96, bias=False)
              (norm_v): LayerNorm((96,), eps=1e-06, elementwise_affine=True)
            )
            (drop_path): DropPath()
            (norm2): LayerNorm((384,), eps=1e-06, elementwise_affine=True)
            (mlp): Mlp(
              (fc1): Linear(in_features=384, out_features=1536, bias=True)
              (act): GELU()
              (fc2): Linear(in_features=1536, out_features=384, bias=True)
            )
          )
          (11): MultiScaleBlock(
            (norm1): LayerNorm((384,), eps=1e-06, elementwise_affine=True)
            (attn): MultiScaleAttention(
              (qkv): Linear(in_features=384, out_features=1152, bias=True)
              (proj): Linear(in_features=384, out_features=384, bias=True)
              (pool_q): Conv3d(96, 96, kernel_size=[3, 3, 3], stride=[1, 1, 1], padding=[1, 1, 1], groups=96, bias=False)
              (norm_q): LayerNorm((96,), eps=1e-06, elementwise_affine=True)
              (pool_k): Conv3d(96, 96, kernel_size=[3, 3, 3], stride=[1, 2, 2], padding=[1, 1, 1], groups=96, bias=False)
              (norm_k): LayerNorm((96,), eps=1e-06, elementwise_affine=True)
              (pool_v): Conv3d(96, 96, kernel_size=[3, 3, 3], stride=[1, 2, 2], padding=[1, 1, 1], groups=96, bias=False)
              (norm_v): LayerNorm((96,), eps=1e-06, elementwise_affine=True)
            )
            (drop_path): DropPath()
            (norm2): LayerNorm((384,), eps=1e-06, elementwise_affine=True)
            (mlp): Mlp(
              (fc1): Linear(in_features=384, out_features=1536, bias=True)
              (act): GELU()
              (fc2): Linear(in_features=1536, out_features=384, bias=True)
            )
          )
          (12): MultiScaleBlock(
            (norm1): LayerNorm((384,), eps=1e-06, elementwise_affine=True)
            (attn): MultiScaleAttention(
              (qkv): Linear(in_features=384, out_features=1152, bias=True)
              (proj): Linear(in_features=384, out_features=384, bias=True)
              (pool_q): Conv3d(96, 96, kernel_size=[3, 3, 3], stride=[1, 1, 1], padding=[1, 1, 1], groups=96, bias=False)
              (norm_q): LayerNorm((96,), eps=1e-06, elementwise_affine=True)
              (pool_k): Conv3d(96, 96, kernel_size=[3, 3, 3], stride=[1, 2, 2], padding=[1, 1, 1], groups=96, bias=False)
              (norm_k): LayerNorm((96,), eps=1e-06, elementwise_affine=True)
              (pool_v): Conv3d(96, 96, kernel_size=[3, 3, 3], stride=[1, 2, 2], padding=[1, 1, 1], groups=96, bias=False)
              (norm_v): LayerNorm((96,), eps=1e-06, elementwise_affine=True)
            )
            (drop_path): DropPath()
            (norm2): LayerNorm((384,), eps=1e-06, elementwise_affine=True)
            (mlp): Mlp(
              (fc1): Linear(in_features=384, out_features=1536, bias=True)
              (act): GELU()
              (fc2): Linear(in_features=1536, out_features=384, bias=True)
            )
          )
          (13): MultiScaleBlock(
            (norm1): LayerNorm((384,), eps=1e-06, elementwise_affine=True)
            (attn): MultiScaleAttention(
              (qkv): Linear(in_features=384, out_features=1152, bias=True)
              (proj): Linear(in_features=384, out_features=384, bias=True)
              (pool_q): Conv3d(96, 96, kernel_size=[3, 3, 3], stride=[1, 1, 1], padding=[1, 1, 1], groups=96, bias=False)
              (norm_q): LayerNorm((96,), eps=1e-06, elementwise_affine=True)
              (pool_k): Conv3d(96, 96, kernel_size=[3, 3, 3], stride=[1, 2, 2], padding=[1, 1, 1], groups=96, bias=False)
              (norm_k): LayerNorm((96,), eps=1e-06, elementwise_affine=True)
              (pool_v): Conv3d(96, 96, kernel_size=[3, 3, 3], stride=[1, 2, 2], padding=[1, 1, 1], groups=96, bias=False)
              (norm_v): LayerNorm((96,), eps=1e-06, elementwise_affine=True)
            )
            (drop_path): DropPath()
            (norm2): LayerNorm((384,), eps=1e-06, elementwise_affine=True)
            (mlp): Mlp(
              (fc1): Linear(in_features=384, out_features=1536, bias=True)
              (act): GELU()
              (fc2): Linear(in_features=1536, out_features=384, bias=True)
            )
          )
          (14): MultiScaleBlock(
            (norm1): LayerNorm((384,), eps=1e-06, elementwise_affine=True)
            (attn): MultiScaleAttention(
              (qkv): Linear(in_features=384, out_features=2304, bias=True)
              (proj): Linear(in_features=768, out_features=768, bias=True)
              (pool_q): Conv3d(96, 96, kernel_size=[3, 3, 3], stride=[1, 2, 2], padding=[1, 1, 1], groups=96, bias=False)
              (norm_q): LayerNorm((96,), eps=1e-06, elementwise_affine=True)
              (pool_k): Conv3d(96, 96, kernel_size=[3, 3, 3], stride=[1, 1, 1], padding=[1, 1, 1], groups=96, bias=False)
              (norm_k): LayerNorm((96,), eps=1e-06, elementwise_affine=True)
              (pool_v): Conv3d(96, 96, kernel_size=[3, 3, 3], stride=[1, 1, 1], padding=[1, 1, 1], groups=96, bias=False)
              (norm_v): LayerNorm((96,), eps=1e-06, elementwise_affine=True)
            )
            (drop_path): DropPath()
            (norm2): LayerNorm((768,), eps=1e-06, elementwise_affine=True)
            (mlp): Mlp(
              (fc1): Linear(in_features=768, out_features=3072, bias=True)
              (act): GELU()
              (fc2): Linear(in_features=3072, out_features=768, bias=True)
            )
            (proj): Linear(in_features=384, out_features=768, bias=True)
            (pool_skip): MaxPool3d(kernel_size=[1, 3, 3], stride=[1, 2, 2], padding=[0, 1, 1], dilation=1, ceil_mode=False)
          )
          (15): MultiScaleBlock(
            (norm1): LayerNorm((768,), eps=1e-06, elementwise_affine=True)
            (attn): MultiScaleAttention(
              (qkv): Linear(in_features=768, out_features=2304, bias=True)
              (proj): Linear(in_features=768, out_features=768, bias=True)
              (pool_q): Conv3d(96, 96, kernel_size=[3, 3, 3], stride=[1, 1, 1], padding=[1, 1, 1], groups=96, bias=False)
              (norm_q): LayerNorm((96,), eps=1e-06, elementwise_affine=True)
              (pool_k): Conv3d(96, 96, kernel_size=[3, 3, 3], stride=[1, 1, 1], padding=[1, 1, 1], groups=96, bias=False)
              (norm_k): LayerNorm((96,), eps=1e-06, elementwise_affine=True)
              (pool_v): Conv3d(96, 96, kernel_size=[3, 3, 3], stride=[1, 1, 1], padding=[1, 1, 1], groups=96, bias=False)
              (norm_v): LayerNorm((96,), eps=1e-06, elementwise_affine=True)
            )
            (drop_path): DropPath()
            (norm2): LayerNorm((768,), eps=1e-06, elementwise_affine=True)
            (mlp): Mlp(
              (fc1): Linear(in_features=768, out_features=3072, bias=True)
              (act): GELU()
              (fc2): Linear(in_features=3072, out_features=768, bias=True)
            )
          )
        )
        (norm): LayerNorm((768,), eps=1e-06, elementwise_affine=True)
        (head): TransformerBasicHead(
          (dropout): Dropout(p=0.5, inplace=False)
          (projection): Linear(in_features=768, out_features=7, bias=True)
          (act): Softmax(dim=1)
        )
      )
    )
    (all_fc): ModuleList(
      (0): FC(
        (relu): ReLU()
        (fc_new): Linear(in_features=768, out_features=512, bias=True)
        (fc): Linear(in_features=512, out_features=1, bias=True)
      )
      (1): FC(
        (relu): ReLU()
        (fc_new): Linear(in_features=768, out_features=512, bias=True)
        (fc): Linear(in_features=512, out_features=1, bias=True)
      )
      (2): FC(
        (relu): ReLU()
        (fc_new): Linear(in_features=768, out_features=512, bias=True)
        (fc): Linear(in_features=512, out_features=1, bias=True)
      )
      (3): FC(
        (relu): ReLU()
        (fc_new): Linear(in_features=768, out_features=512, bias=True)
        (fc): Linear(in_features=512, out_features=1, bias=True)
      )
      (4): FC(
        (relu): ReLU()
        (fc_new): Linear(in_features=768, out_features=512, bias=True)
        (fc): Linear(in_features=512, out_features=1, bias=True)
      )
      (5): FC(
        (relu): ReLU()
        (fc_new): Linear(in_features=768, out_features=512, bias=True)
        (fc): Linear(in_features=512, out_features=1, bias=True)
      )
      (6): FC(
        (relu): ReLU()
        (fc_new): Linear(in_features=768, out_features=512, bias=True)
        (fc): Linear(in_features=512, out_features=1, bias=True)
      )
      (7): FC(
        (relu): ReLU()
        (fc_new): Linear(in_features=768, out_features=512, bias=True)
        (fc): Linear(in_features=512, out_features=1, bias=True)
      )
      (8): FC(
        (relu): ReLU()
        (fc_new): Linear(in_features=768, out_features=512, bias=True)
        (fc): Linear(in_features=512, out_features=1, bias=True)
      )
      (9): FC(
        (relu): ReLU()
        (fc_new): Linear(in_features=768, out_features=512, bias=True)
        (fc): Linear(in_features=512, out_features=1, bias=True)
      )
      (10): FC(
        (relu): ReLU()
        (fc_new): Linear(in_features=768, out_features=512, bias=True)
        (fc): Linear(in_features=512, out_features=1, bias=True)
      )
      (11): FC(
        (relu): ReLU()
        (fc_new): Linear(in_features=768, out_features=512, bias=True)
        (fc): Linear(in_features=512, out_features=1, bias=True)
      )
      (12): FC(
        (relu): ReLU()
        (fc_new): Linear(in_features=768, out_features=512, bias=True)
        (fc): Linear(in_features=512, out_features=1, bias=True)
      )
      (13): FC(
        (relu): ReLU()
        (fc_new): Linear(in_features=768, out_features=512, bias=True)
        (fc): Linear(in_features=512, out_features=1, bias=True)
      )
      (14): FC(
        (relu): ReLU()
        (fc_new): Linear(in_features=768, out_features=512, bias=True)
        (fc): Linear(in_features=512, out_features=1, bias=True)
      )
    )
  )
  (final_model): End2EndModel(
    (first_model): add_fc(
      (model): MViT_cbm(
        (patch_embed): PatchEmbed(
          (proj): Conv3d(3, 96, kernel_size=[3, 7, 7], stride=[2, 4, 4], padding=[1, 3, 3])
        )
        (blocks): ModuleList(
          (0): MultiScaleBlock(
            (norm1): LayerNorm((96,), eps=1e-06, elementwise_affine=True)
            (attn): MultiScaleAttention(
              (qkv): Linear(in_features=96, out_features=288, bias=True)
              (proj): Linear(in_features=96, out_features=96, bias=True)
              (pool_q): Conv3d(96, 96, kernel_size=[3, 3, 3], stride=[1, 1, 1], padding=[1, 1, 1], groups=96, bias=False)
              (norm_q): LayerNorm((96,), eps=1e-06, elementwise_affine=True)
              (pool_k): Conv3d(96, 96, kernel_size=[3, 3, 3], stride=[1, 8, 8], padding=[1, 1, 1], groups=96, bias=False)
              (norm_k): LayerNorm((96,), eps=1e-06, elementwise_affine=True)
              (pool_v): Conv3d(96, 96, kernel_size=[3, 3, 3], stride=[1, 8, 8], padding=[1, 1, 1], groups=96, bias=False)
              (norm_v): LayerNorm((96,), eps=1e-06, elementwise_affine=True)
            )
            (drop_path): Identity()
            (norm2): LayerNorm((96,), eps=1e-06, elementwise_affine=True)
            (mlp): Mlp(
              (fc1): Linear(in_features=96, out_features=384, bias=True)
              (act): GELU()
              (fc2): Linear(in_features=384, out_features=96, bias=True)
            )
          )
          (1): MultiScaleBlock(
            (norm1): LayerNorm((96,), eps=1e-06, elementwise_affine=True)
            (attn): MultiScaleAttention(
              (qkv): Linear(in_features=96, out_features=576, bias=True)
              (proj): Linear(in_features=192, out_features=192, bias=True)
              (pool_q): Conv3d(96, 96, kernel_size=[3, 3, 3], stride=[1, 2, 2], padding=[1, 1, 1], groups=96, bias=False)
              (norm_q): LayerNorm((96,), eps=1e-06, elementwise_affine=True)
              (pool_k): Conv3d(96, 96, kernel_size=[3, 3, 3], stride=[1, 4, 4], padding=[1, 1, 1], groups=96, bias=False)
              (norm_k): LayerNorm((96,), eps=1e-06, elementwise_affine=True)
              (pool_v): Conv3d(96, 96, kernel_size=[3, 3, 3], stride=[1, 4, 4], padding=[1, 1, 1], groups=96, bias=False)
              (norm_v): LayerNorm((96,), eps=1e-06, elementwise_affine=True)
            )
            (drop_path): DropPath()
            (norm2): LayerNorm((192,), eps=1e-06, elementwise_affine=True)
            (mlp): Mlp(
              (fc1): Linear(in_features=192, out_features=768, bias=True)
              (act): GELU()
              (fc2): Linear(in_features=768, out_features=192, bias=True)
            )
            (proj): Linear(in_features=96, out_features=192, bias=True)
            (pool_skip): MaxPool3d(kernel_size=[1, 3, 3], stride=[1, 2, 2], padding=[0, 1, 1], dilation=1, ceil_mode=False)
          )
          (2): MultiScaleBlock(
            (norm1): LayerNorm((192,), eps=1e-06, elementwise_affine=True)
            (attn): MultiScaleAttention(
              (qkv): Linear(in_features=192, out_features=576, bias=True)
              (proj): Linear(in_features=192, out_features=192, bias=True)
              (pool_q): Conv3d(96, 96, kernel_size=[3, 3, 3], stride=[1, 1, 1], padding=[1, 1, 1], groups=96, bias=False)
              (norm_q): LayerNorm((96,), eps=1e-06, elementwise_affine=True)
              (pool_k): Conv3d(96, 96, kernel_size=[3, 3, 3], stride=[1, 4, 4], padding=[1, 1, 1], groups=96, bias=False)
              (norm_k): LayerNorm((96,), eps=1e-06, elementwise_affine=True)
              (pool_v): Conv3d(96, 96, kernel_size=[3, 3, 3], stride=[1, 4, 4], padding=[1, 1, 1], groups=96, bias=False)
              (norm_v): LayerNorm((96,), eps=1e-06, elementwise_affine=True)
            )
            (drop_path): DropPath()
            (norm2): LayerNorm((192,), eps=1e-06, elementwise_affine=True)
…
            (norm1): LayerNorm((384,), eps=1e-06, elementwise_affine=True)
            (attn): MultiScaleAttention(
              (qkv): Linear(in_features=384, out_features=2304, bias=True)
              (proj): Linear(in_features=768, out_features=768, bias=True)
              (pool_q): Conv3d(96, 96, kernel_size=[3, 3, 3], stride=[1, 2, 2], padding=[1, 1, 1], groups=96, bias=False)
              (norm_q): LayerNorm((96,), eps=1e-06, elementwise_affine=True)
              (pool_k): Conv3d(96, 96, kernel_size=[3, 3, 3], stride=[1, 1, 1], padding=[1, 1, 1], groups=96, bias=False)
              (norm_k): LayerNorm((96,), eps=1e-06, elementwise_affine=True)
              (pool_v): Conv3d(96, 96, kernel_size=[3, 3, 3], stride=[1, 1, 1], padding=[1, 1, 1], groups=96, bias=False)
              (norm_v): LayerNorm((96,), eps=1e-06, elementwise_affine=True)
            )
            (drop_path): DropPath()
            (norm2): LayerNorm((768,), eps=1e-06, elementwise_affine=True)
            (mlp): Mlp(
              (fc1): Linear(in_features=768, out_features=3072, bias=True)
              (act): GELU()
              (fc2): Linear(in_features=3072, out_features=768, bias=True)
            )
            (proj): Linear(in_features=384, out_features=768, bias=True)
            (pool_skip): MaxPool3d(kernel_size=[1, 3, 3], stride=[1, 2, 2], padding=[0, 1, 1], dilation=1, ceil_mode=False)
          )
          (15): MultiScaleBlock(
            (norm1): LayerNorm((768,), eps=1e-06, elementwise_affine=True)
            (attn): MultiScaleAttention(
              (qkv): Linear(in_features=768, out_features=2304, bias=True)
              (proj): Linear(in_features=768, out_features=768, bias=True)
              (pool_q): Conv3d(96, 96, kernel_size=[3, 3, 3], stride=[1, 1, 1], padding=[1, 1, 1], groups=96, bias=False)
              (norm_q): LayerNorm((96,), eps=1e-06, elementwise_affine=True)
              (pool_k): Conv3d(96, 96, kernel_size=[3, 3, 3], stride=[1, 1, 1], padding=[1, 1, 1], groups=96, bias=False)
              (norm_k): LayerNorm((96,), eps=1e-06, elementwise_affine=True)
              (pool_v): Conv3d(96, 96, kernel_size=[3, 3, 3], stride=[1, 1, 1], padding=[1, 1, 1], groups=96, bias=False)
              (norm_v): LayerNorm((96,), eps=1e-06, elementwise_affine=True)
            )
            (drop_path): DropPath()
            (norm2): LayerNorm((768,), eps=1e-06, elementwise_affine=True)
            (mlp): Mlp(
              (fc1): Linear(in_features=768, out_features=3072, bias=True)
              (act): GELU()
              (fc2): Linear(in_features=3072, out_features=768, bias=True)
            )
          )
        )
        (norm): LayerNorm((768,), eps=1e-06, elementwise_affine=True)
        (head): TransformerBasicHead(
          (dropout): Dropout(p=0.5, inplace=False)
          (projection): Linear(in_features=768, out_features=7, bias=True)
          (act): Softmax(dim=1)
        )
        (model1): MViT(
          (patch_embed): PatchEmbed(
            (proj): Conv3d(3, 96, kernel_size=[3, 7, 7], stride=[2, 4, 4], padding=[1, 3, 3])
          )
          (blocks): ModuleList(
            (0): MultiScaleBlock(
              (norm1): LayerNorm((96,), eps=1e-06, elementwise_affine=True)
              (attn): MultiScaleAttention(
                (qkv): Linear(in_features=96, out_features=288, bias=True)
                (proj): Linear(in_features=96, out_features=96, bias=True)
                (pool_q): Conv3d(96, 96, kernel_size=[3, 3, 3], stride=[1, 1, 1], padding=[1, 1, 1], groups=96, bias=False)
                (norm_q): LayerNorm((96,), eps=1e-06, elementwise_affine=True)
                (pool_k): Conv3d(96, 96, kernel_size=[3, 3, 3], stride=[1, 8, 8], padding=[1, 1, 1], groups=96, bias=False)
                (norm_k): LayerNorm((96,), eps=1e-06, elementwise_affine=True)
                (pool_v): Conv3d(96, 96, kernel_size=[3, 3, 3], stride=[1, 8, 8], padding=[1, 1, 1], groups=96, bias=False)
                (norm_v): LayerNorm((96,), eps=1e-06, elementwise_affine=True)
              )
              (drop_path): Identity()
              (norm2): LayerNorm((96,), eps=1e-06, elementwise_affine=True)
              (mlp): Mlp(
                (fc1): Linear(in_features=96, out_features=384, bias=True)
                (act): GELU()
                (fc2): Linear(in_features=384, out_features=96, bias=True)
              )
            )
            (1): MultiScaleBlock(
              (norm1): LayerNorm((96,), eps=1e-06, elementwise_affine=True)
              (attn): MultiScaleAttention(
                (qkv): Linear(in_features=96, out_features=576, bias=True)
                (proj): Linear(in_features=192, out_features=192, bias=True)
                (pool_q): Conv3d(96, 96, kernel_size=[3, 3, 3], stride=[1, 2, 2], padding=[1, 1, 1], groups=96, bias=False)
                (norm_q): LayerNorm((96,), eps=1e-06, elementwise_affine=True)
                (pool_k): Conv3d(96, 96, kernel_size=[3, 3, 3], stride=[1, 4, 4], padding=[1, 1, 1], groups=96, bias=False)
                (norm_k): LayerNorm((96,), eps=1e-06, elementwise_affine=True)
                (pool_v): Conv3d(96, 96, kernel_size=[3, 3, 3], stride=[1, 4, 4], padding=[1, 1, 1], groups=96, bias=False)
                (norm_v): LayerNorm((96,), eps=1e-06, elementwise_affine=True)
              )
              (drop_path): DropPath()
              (norm2): LayerNorm((192,), eps=1e-06, elementwise_affine=True)
              (mlp): Mlp(
                (fc1): Linear(in_features=192, out_features=768, bias=True)
                (act): GELU()
                (fc2): Linear(in_features=768, out_features=192, bias=True)
              )
              (proj): Linear(in_features=96, out_features=192, bias=True)
              (pool_skip): MaxPool3d(kernel_size=[1, 3, 3], stride=[1, 2, 2], padding=[0, 1, 1], dilation=1, ceil_mode=False)
            )
            (2): MultiScaleBlock(
              (norm1): LayerNorm((192,), eps=1e-06, elementwise_affine=True)
              (attn): MultiScaleAttention(
                (qkv): Linear(in_features=192, out_features=576, bias=True)
                (proj): Linear(in_features=192, out_features=192, bias=True)
                (pool_q): Conv3d(96, 96, kernel_size=[3, 3, 3], stride=[1, 1, 1], padding=[1, 1, 1], groups=96, bias=False)
                (norm_q): LayerNorm((96,), eps=1e-06, elementwise_affine=True)
                (pool_k): Conv3d(96, 96, kernel_size=[3, 3, 3], stride=[1, 4, 4], padding=[1, 1, 1], groups=96, bias=False)
                (norm_k): LayerNorm((96,), eps=1e-06, elementwise_affine=True)
                (pool_v): Conv3d(96, 96, kernel_size=[3, 3, 3], stride=[1, 4, 4], padding=[1, 1, 1], groups=96, bias=False)
                (norm_v): LayerNorm((96,), eps=1e-06, elementwise_affine=True)
              )
              (drop_path): DropPath()
              (norm2): LayerNorm((192,), eps=1e-06, elementwise_affine=True)
              (mlp): Mlp(
                (fc1): Linear(in_features=192, out_features=768, bias=True)
                (act): GELU()
                (fc2): Linear(in_features=768, out_features=192, bias=True)
              )
            )
            (3): MultiScaleBlock(
              (norm1): LayerNorm((192,), eps=1e-06, elementwise_affine=True)
              (attn): MultiScaleAttention(
                (qkv): Linear(in_features=192, out_features=1152, bias=True)
                (proj): Linear(in_features=384, out_features=384, bias=True)
                (pool_q): Conv3d(96, 96, kernel_size=[3, 3, 3], stride=[1, 2, 2], padding=[1, 1, 1], groups=96, bias=False)
                (norm_q): LayerNorm((96,), eps=1e-06, elementwise_affine=True)
                (pool_k): Conv3d(96, 96, kernel_size=[3, 3, 3], stride=[1, 2, 2], padding=[1, 1, 1], groups=96, bias=False)
                (norm_k): LayerNorm((96,), eps=1e-06, elementwise_affine=True)
                (pool_v): Conv3d(96, 96, kernel_size=[3, 3, 3], stride=[1, 2, 2], padding=[1, 1, 1], groups=96, bias=False)
                (norm_v): LayerNorm((96,), eps=1e-06, elementwise_affine=True)
              )
              (drop_path): DropPath()
              (norm2): LayerNorm((384,), eps=1e-06, elementwise_affine=True)
              (mlp): Mlp(
                (fc1): Linear(in_features=384, out_features=1536, bias=True)
                (act): GELU()
                (fc2): Linear(in_features=1536, out_features=384, bias=True)
              )
              (proj): Linear(in_features=192, out_features=384, bias=True)
              (pool_skip): MaxPool3d(kernel_size=[1, 3, 3], stride=[1, 2, 2], padding=[0, 1, 1], dilation=1, ceil_mode=False)
            )
            (4): MultiScaleBlock(
              (norm1): LayerNorm((384,), eps=1e-06, elementwise_affine=True)
              (attn): MultiScaleAttention(
                (qkv): Linear(in_features=384, out_features=1152, bias=True)
                (proj): Linear(in_features=384, out_features=384, bias=True)
                (pool_q): Conv3d(96, 96, kernel_size=[3, 3, 3], stride=[1, 1, 1], padding=[1, 1, 1], groups=96, bias=False)
                (norm_q): LayerNorm((96,), eps=1e-06, elementwise_affine=True)
                (pool_k): Conv3d(96, 96, kernel_size=[3, 3, 3], stride=[1, 2, 2], padding=[1, 1, 1], groups=96, bias=False)
                (norm_k): LayerNorm((96,), eps=1e-06, elementwise_affine=True)
                (pool_v): Conv3d(96, 96, kernel_size=[3, 3, 3], stride=[1, 2, 2], padding=[1, 1, 1], groups=96, bias=False)
                (norm_v): LayerNorm((96,), eps=1e-06, elementwise_affine=True)
              )
              (drop_path): DropPath()
              (norm2): LayerNorm((384,), eps=1e-06, elementwise_affine=True)
              (mlp): Mlp(
                (fc1): Linear(in_features=384, out_features=1536, bias=True)
                (act): GELU()
                (fc2): Linear(in_features=1536, out_features=384, bias=True)
              )
            )
            (5): MultiScaleBlock(
              (norm1): LayerNorm((384,), eps=1e-06, elementwise_affine=True)
              (attn): MultiScaleAttention(
                (qkv): Linear(in_features=384, out_features=1152, bias=True)
                (proj): Linear(in_features=384, out_features=384, bias=True)
                (pool_q): Conv3d(96, 96, kernel_size=[3, 3, 3], stride=[1, 1, 1], padding=[1, 1, 1], groups=96, bias=False)
                (norm_q): LayerNorm((96,), eps=1e-06, elementwise_affine=True)
                (pool_k): Conv3d(96, 96, kernel_size=[3, 3, 3], stride=[1, 2, 2], padding=[1, 1, 1], groups=96, bias=False)
                (norm_k): LayerNorm((96,), eps=1e-06, elementwise_affine=True)
                (pool_v): Conv3d(96, 96, kernel_size=[3, 3, 3], stride=[1, 2, 2], padding=[1, 1, 1], groups=96, bias=False)
                (norm_v): LayerNorm((96,), eps=1e-06, elementwise_affine=True)
              )
              (drop_path): DropPath()
              (norm2): LayerNorm((384,), eps=1e-06, elementwise_affine=True)
              (mlp): Mlp(
                (fc1): Linear(in_features=384, out_features=1536, bias=True)
                (act): GELU()
                (fc2): Linear(in_features=1536, out_features=384, bias=True)
              )
            )
            (6): MultiScaleBlock(
              (norm1): LayerNorm((384,), eps=1e-06, elementwise_affine=True)
              (attn): MultiScaleAttention(
                (qkv): Linear(in_features=384, out_features=1152, bias=True)
                (proj): Linear(in_features=384, out_features=384, bias=True)
                (pool_q): Conv3d(96, 96, kernel_size=[3, 3, 3], stride=[1, 1, 1], padding=[1, 1, 1], groups=96, bias=False)
                (norm_q): LayerNorm((96,), eps=1e-06, elementwise_affine=True)
                (pool_k): Conv3d(96, 96, kernel_size=[3, 3, 3], stride=[1, 2, 2], padding=[1, 1, 1], groups=96, bias=False)
                (norm_k): LayerNorm((96,), eps=1e-06, elementwise_affine=True)
                (pool_v): Conv3d(96, 96, kernel_size=[3, 3, 3], stride=[1, 2, 2], padding=[1, 1, 1], groups=96, bias=False)
                (norm_v): LayerNorm((96,), eps=1e-06, elementwise_affine=True)
              )
              (drop_path): DropPath()
              (norm2): LayerNorm((384,), eps=1e-06, elementwise_affine=True)
              (mlp): Mlp(
                (fc1): Linear(in_features=384, out_features=1536, bias=True)
                (act): GELU()
                (fc2): Linear(in_features=1536, out_features=384, bias=True)
              )
            )
            (7): MultiScaleBlock(
              (norm1): LayerNorm((384,), eps=1e-06, elementwise_affine=True)
              (attn): MultiScaleAttention(
                (qkv): Linear(in_features=384, out_features=1152, bias=True)
                (proj): Linear(in_features=384, out_features=384, bias=True)
                (pool_q): Conv3d(96, 96, kernel_size=[3, 3, 3], stride=[1, 1, 1], padding=[1, 1, 1], groups=96, bias=False)
                (norm_q): LayerNorm((96,), eps=1e-06, elementwise_affine=True)
                (pool_k): Conv3d(96, 96, kernel_size=[3, 3, 3], stride=[1, 2, 2], padding=[1, 1, 1], groups=96, bias=False)
                (norm_k): LayerNorm((96,), eps=1e-06, elementwise_affine=True)
                (pool_v): Conv3d(96, 96, kernel_size=[3, 3, 3], stride=[1, 2, 2], padding=[1, 1, 1], groups=96, bias=False)
                (norm_v): LayerNorm((96,), eps=1e-06, elementwise_affine=True)
              )
              (drop_path): DropPath()
              (norm2): LayerNorm((384,), eps=1e-06, elementwise_affine=True)
              (mlp): Mlp(
                (fc1): Linear(in_features=384, out_features=1536, bias=True)
                (act): GELU()
                (fc2): Linear(in_features=1536, out_features=384, bias=True)
              )
            )
            (8): MultiScaleBlock(
              (norm1): LayerNorm((384,), eps=1e-06, elementwise_affine=True)
              (attn): MultiScaleAttention(
                (qkv): Linear(in_features=384, out_features=1152, bias=True)
                (proj): Linear(in_features=384, out_features=384, bias=True)
                (pool_q): Conv3d(96, 96, kernel_size=[3, 3, 3], stride=[1, 1, 1], padding=[1, 1, 1], groups=96, bias=False)
                (norm_q): LayerNorm((96,), eps=1e-06, elementwise_affine=True)
                (pool_k): Conv3d(96, 96, kernel_size=[3, 3, 3], stride=[1, 2, 2], padding=[1, 1, 1], groups=96, bias=False)
                (norm_k): LayerNorm((96,), eps=1e-06, elementwise_affine=True)
                (pool_v): Conv3d(96, 96, kernel_size=[3, 3, 3], stride=[1, 2, 2], padding=[1, 1, 1], groups=96, bias=False)
                (norm_v): LayerNorm((96,), eps=1e-06, elementwise_affine=True)
              )
              (drop_path): DropPath()
              (norm2): LayerNorm((384,), eps=1e-06, elementwise_affine=True)
              (mlp): Mlp(
                (fc1): Linear(in_features=384, out_features=1536, bias=True)
                (act): GELU()
                (fc2): Linear(in_features=1536, out_features=384, bias=True)
              )
            )
            (9): MultiScaleBlock(
              (norm1): LayerNorm((384,), eps=1e-06, elementwise_affine=True)
              (attn): MultiScaleAttention(
                (qkv): Linear(in_features=384, out_features=1152, bias=True)
                (proj): Linear(in_features=384, out_features=384, bias=True)
                (pool_q): Conv3d(96, 96, kernel_size=[3, 3, 3], stride=[1, 1, 1], padding=[1, 1, 1], groups=96, bias=False)
                (norm_q): LayerNorm((96,), eps=1e-06, elementwise_affine=True)
                (pool_k): Conv3d(96, 96, kernel_size=[3, 3, 3], stride=[1, 2, 2], padding=[1, 1, 1], groups=96, bias=False)
                (norm_k): LayerNorm((96,), eps=1e-06, elementwise_affine=True)
                (pool_v): Conv3d(96, 96, kernel_size=[3, 3, 3], stride=[1, 2, 2], padding=[1, 1, 1], groups=96, bias=False)
                (norm_v): LayerNorm((96,), eps=1e-06, elementwise_affine=True)
              )
              (drop_path): DropPath()
              (norm2): LayerNorm((384,), eps=1e-06, elementwise_affine=True)
              (mlp): Mlp(
                (fc1): Linear(in_features=384, out_features=1536, bias=True)
                (act): GELU()
                (fc2): Linear(in_features=1536, out_features=384, bias=True)
              )
            )
            (10): MultiScaleBlock(
              (norm1): LayerNorm((384,), eps=1e-06, elementwise_affine=True)
              (attn): MultiScaleAttention(
                (qkv): Linear(in_features=384, out_features=1152, bias=True)
                (proj): Linear(in_features=384, out_features=384, bias=True)
                (pool_q): Conv3d(96, 96, kernel_size=[3, 3, 3], stride=[1, 1, 1], padding=[1, 1, 1], groups=96, bias=False)
                (norm_q): LayerNorm((96,), eps=1e-06, elementwise_affine=True)
                (pool_k): Conv3d(96, 96, kernel_size=[3, 3, 3], stride=[1, 2, 2], padding=[1, 1, 1], groups=96, bias=False)
                (norm_k): LayerNorm((96,), eps=1e-06, elementwise_affine=True)
                (pool_v): Conv3d(96, 96, kernel_size=[3, 3, 3], stride=[1, 2, 2], padding=[1, 1, 1], groups=96, bias=False)
                (norm_v): LayerNorm((96,), eps=1e-06, elementwise_affine=True)
              )
              (drop_path): DropPath()
              (norm2): LayerNorm((384,), eps=1e-06, elementwise_affine=True)
              (mlp): Mlp(
                (fc1): Linear(in_features=384, out_features=1536, bias=True)
                (act): GELU()
                (fc2): Linear(in_features=1536, out_features=384, bias=True)
              )
            )
            (11): MultiScaleBlock(
              (norm1): LayerNorm((384,), eps=1e-06, elementwise_affine=True)
              (attn): MultiScaleAttention(
                (qkv): Linear(in_features=384, out_features=1152, bias=True)
                (proj): Linear(in_features=384, out_features=384, bias=True)
                (pool_q): Conv3d(96, 96, kernel_size=[3, 3, 3], stride=[1, 1, 1], padding=[1, 1, 1], groups=96, bias=False)
                (norm_q): LayerNorm((96,), eps=1e-06, elementwise_affine=True)
                (pool_k): Conv3d(96, 96, kernel_size=[3, 3, 3], stride=[1, 2, 2], padding=[1, 1, 1], groups=96, bias=False)
                (norm_k): LayerNorm((96,), eps=1e-06, elementwise_affine=True)
                (pool_v): Conv3d(96, 96, kernel_size=[3, 3, 3], stride=[1, 2, 2], padding=[1, 1, 1], groups=96, bias=False)
                (norm_v): LayerNorm((96,), eps=1e-06, elementwise_affine=True)
              )
              (drop_path): DropPath()
              (norm2): LayerNorm((384,), eps=1e-06, elementwise_affine=True)
              (mlp): Mlp(
                (fc1): Linear(in_features=384, out_features=1536, bias=True)
                (act): GELU()
                (fc2): Linear(in_features=1536, out_features=384, bias=True)
              )
            )
            (12): MultiScaleBlock(
              (norm1): LayerNorm((384,), eps=1e-06, elementwise_affine=True)
              (attn): MultiScaleAttention(
                (qkv): Linear(in_features=384, out_features=1152, bias=True)
                (proj): Linear(in_features=384, out_features=384, bias=True)
                (pool_q): Conv3d(96, 96, kernel_size=[3, 3, 3], stride=[1, 1, 1], padding=[1, 1, 1], groups=96, bias=False)
                (norm_q): LayerNorm((96,), eps=1e-06, elementwise_affine=True)
                (pool_k): Conv3d(96, 96, kernel_size=[3, 3, 3], stride=[1, 2, 2], padding=[1, 1, 1], groups=96, bias=False)
                (norm_k): LayerNorm((96,), eps=1e-06, elementwise_affine=True)
                (pool_v): Conv3d(96, 96, kernel_size=[3, 3, 3], stride=[1, 2, 2], padding=[1, 1, 1], groups=96, bias=False)
                (norm_v): LayerNorm((96,), eps=1e-06, elementwise_affine=True)
              )
              (drop_path): DropPath()
              (norm2): LayerNorm((384,), eps=1e-06, elementwise_affine=True)
              (mlp): Mlp(
                (fc1): Linear(in_features=384, out_features=1536, bias=True)
                (act): GELU()
                (fc2): Linear(in_features=1536, out_features=384, bias=True)
              )
            )
            (13): MultiScaleBlock(
              (norm1): LayerNorm((384,), eps=1e-06, elementwise_affine=True)
              (attn): MultiScaleAttention(
                (qkv): Linear(in_features=384, out_features=1152, bias=True)
                (proj): Linear(in_features=384, out_features=384, bias=True)
                (pool_q): Conv3d(96, 96, kernel_size=[3, 3, 3], stride=[1, 1, 1], padding=[1, 1, 1], groups=96, bias=False)
                (norm_q): LayerNorm((96,), eps=1e-06, elementwise_affine=True)
                (pool_k): Conv3d(96, 96, kernel_size=[3, 3, 3], stride=[1, 2, 2], padding=[1, 1, 1], groups=96, bias=False)
                (norm_k): LayerNorm((96,), eps=1e-06, elementwise_affine=True)
                (pool_v): Conv3d(96, 96, kernel_size=[3, 3, 3], stride=[1, 2, 2], padding=[1, 1, 1], groups=96, bias=False)
                (norm_v): LayerNorm((96,), eps=1e-06, elementwise_affine=True)
              )
              (drop_path): DropPath()
              (norm2): LayerNorm((384,), eps=1e-06, elementwise_affine=True)
              (mlp): Mlp(
                (fc1): Linear(in_features=384, out_features=1536, bias=True)
                (act): GELU()
                (fc2): Linear(in_features=1536, out_features=384, bias=True)
              )
            )
            (14): MultiScaleBlock(
              (norm1): LayerNorm((384,), eps=1e-06, elementwise_affine=True)
              (attn): MultiScaleAttention(
                (qkv): Linear(in_features=384, out_features=2304, bias=True)
                (proj): Linear(in_features=768, out_features=768, bias=True)
                (pool_q): Conv3d(96, 96, kernel_size=[3, 3, 3], stride=[1, 2, 2], padding=[1, 1, 1], groups=96, bias=False)
                (norm_q): LayerNorm((96,), eps=1e-06, elementwise_affine=True)
                (pool_k): Conv3d(96, 96, kernel_size=[3, 3, 3], stride=[1, 1, 1], padding=[1, 1, 1], groups=96, bias=False)
                (norm_k): LayerNorm((96,), eps=1e-06, elementwise_affine=True)
                (pool_v): Conv3d(96, 96, kernel_size=[3, 3, 3], stride=[1, 1, 1], padding=[1, 1, 1], groups=96, bias=False)
                (norm_v): LayerNorm((96,), eps=1e-06, elementwise_affine=True)
              )
              (drop_path): DropPath()
              (norm2): LayerNorm((768,), eps=1e-06, elementwise_affine=True)
              (mlp): Mlp(
                (fc1): Linear(in_features=768, out_features=3072, bias=True)
                (act): GELU()
                (fc2): Linear(in_features=3072, out_features=768, bias=True)
              )
              (proj): Linear(in_features=384, out_features=768, bias=True)
              (pool_skip): MaxPool3d(kernel_size=[1, 3, 3], stride=[1, 2, 2], padding=[0, 1, 1], dilation=1, ceil_mode=False)
            )
            (15): MultiScaleBlock(
              (norm1): LayerNorm((768,), eps=1e-06, elementwise_affine=True)
              (attn): MultiScaleAttention(
                (qkv): Linear(in_features=768, out_features=2304, bias=True)
                (proj): Linear(in_features=768, out_features=768, bias=True)
                (pool_q): Conv3d(96, 96, kernel_size=[3, 3, 3], stride=[1, 1, 1], padding=[1, 1, 1], groups=96, bias=False)
                (norm_q): LayerNorm((96,), eps=1e-06, elementwise_affine=True)
                (pool_k): Conv3d(96, 96, kernel_size=[3, 3, 3], stride=[1, 1, 1], padding=[1, 1, 1], groups=96, bias=False)
                (norm_k): LayerNorm((96,), eps=1e-06, elementwise_affine=True)
                (pool_v): Conv3d(96, 96, kernel_size=[3, 3, 3], stride=[1, 1, 1], padding=[1, 1, 1], groups=96, bias=False)
                (norm_v): LayerNorm((96,), eps=1e-06, elementwise_affine=True)
              )
              (drop_path): DropPath()
              (norm2): LayerNorm((768,), eps=1e-06, elementwise_affine=True)
              (mlp): Mlp(
                (fc1): Linear(in_features=768, out_features=3072, bias=True)
                (act): GELU()
                (fc2): Linear(in_features=3072, out_features=768, bias=True)
              )
            )
          )
          (norm): LayerNorm((768,), eps=1e-06, elementwise_affine=True)
          (head): TransformerBasicHead(
            (dropout): Dropout(p=0.5, inplace=False)
            (projection): Linear(in_features=768, out_features=7, bias=True)
            (act): Softmax(dim=1)
          )
        )
        (model2): MViT(
          (patch_embed): PatchEmbed(
            (proj): Conv3d(3, 96, kernel_size=[3, 7, 7], stride=[2, 4, 4], padding=[1, 3, 3])
          )
          (blocks): ModuleList(
            (0): MultiScaleBlock(
              (norm1): LayerNorm((96,), eps=1e-06, elementwise_affine=True)
              (attn): MultiScaleAttention(
                (qkv): Linear(in_features=96, out_features=288, bias=True)
                (proj): Linear(in_features=96, out_features=96, bias=True)
                (pool_q): Conv3d(96, 96, kernel_size=[3, 3, 3], stride=[1, 1, 1], padding=[1, 1, 1], groups=96, bias=False)
                (norm_q): LayerNorm((96,), eps=1e-06, elementwise_affine=True)
                (pool_k): Conv3d(96, 96, kernel_size=[3, 3, 3], stride=[1, 8, 8], padding=[1, 1, 1], groups=96, bias=False)
                (norm_k): LayerNorm((96,), eps=1e-06, elementwise_affine=True)
                (pool_v): Conv3d(96, 96, kernel_size=[3, 3, 3], stride=[1, 8, 8], padding=[1, 1, 1], groups=96, bias=False)
                (norm_v): LayerNorm((96,), eps=1e-06, elementwise_affine=True)
              )
              (drop_path): Identity()
              (norm2): LayerNorm((96,), eps=1e-06, elementwise_affine=True)
              (mlp): Mlp(
                (fc1): Linear(in_features=96, out_features=384, bias=True)
                (act): GELU()
                (fc2): Linear(in_features=384, out_features=96, bias=True)
              )
            )
            (1): MultiScaleBlock(
              (norm1): LayerNorm((96,), eps=1e-06, elementwise_affine=True)
              (attn): MultiScaleAttention(
                (qkv): Linear(in_features=96, out_features=576, bias=True)
                (proj): Linear(in_features=192, out_features=192, bias=True)
                (pool_q): Conv3d(96, 96, kernel_size=[3, 3, 3], stride=[1, 2, 2], padding=[1, 1, 1], groups=96, bias=False)
                (norm_q): LayerNorm((96,), eps=1e-06, elementwise_affine=True)
                (pool_k): Conv3d(96, 96, kernel_size=[3, 3, 3], stride=[1, 4, 4], padding=[1, 1, 1], groups=96, bias=False)
                (norm_k): LayerNorm((96,), eps=1e-06, elementwise_affine=True)
                (pool_v): Conv3d(96, 96, kernel_size=[3, 3, 3], stride=[1, 4, 4], padding=[1, 1, 1], groups=96, bias=False)
                (norm_v): LayerNorm((96,), eps=1e-06, elementwise_affine=True)
              )
              (drop_path): DropPath()
              (norm2): LayerNorm((192,), eps=1e-06, elementwise_affine=True)
              (mlp): Mlp(
                (fc1): Linear(in_features=192, out_features=768, bias=True)
                (act): GELU()
                (fc2): Linear(in_features=768, out_features=192, bias=True)
              )
              (proj): Linear(in_features=96, out_features=192, bias=True)
              (pool_skip): MaxPool3d(kernel_size=[1, 3, 3], stride=[1, 2, 2], padding=[0, 1, 1], dilation=1, ceil_mode=False)
            )
            (2): MultiScaleBlock(
              (norm1): LayerNorm((192,), eps=1e-06, elementwise_affine=True)
              (attn): MultiScaleAttention(
                (qkv): Linear(in_features=192, out_features=576, bias=True)
                (proj): Linear(in_features=192, out_features=192, bias=True)
                (pool_q): Conv3d(96, 96, kernel_size=[3, 3, 3], stride=[1, 1, 1], padding=[1, 1, 1], groups=96, bias=False)
                (norm_q): LayerNorm((96,), eps=1e-06, elementwise_affine=True)
                (pool_k): Conv3d(96, 96, kernel_size=[3, 3, 3], stride=[1, 4, 4], padding=[1, 1, 1], groups=96, bias=False)
                (norm_k): LayerNorm((96,), eps=1e-06, elementwise_affine=True)
                (pool_v): Conv3d(96, 96, kernel_size=[3, 3, 3], stride=[1, 4, 4], padding=[1, 1, 1], groups=96, bias=False)
                (norm_v): LayerNorm((96,), eps=1e-06, elementwise_affine=True)
              )
              (drop_path): DropPath()
              (norm2): LayerNorm((192,), eps=1e-06, elementwise_affine=True)
              (mlp): Mlp(
                (fc1): Linear(in_features=192, out_features=768, bias=True)
                (act): GELU()
                (fc2): Linear(in_features=768, out_features=192, bias=True)
              )
            )
            (3): MultiScaleBlock(
              (norm1): LayerNorm((192,), eps=1e-06, elementwise_affine=True)
              (attn): MultiScaleAttention(
                (qkv): Linear(in_features=192, out_features=1152, bias=True)
                (proj): Linear(in_features=384, out_features=384, bias=True)
                (pool_q): Conv3d(96, 96, kernel_size=[3, 3, 3], stride=[1, 2, 2], padding=[1, 1, 1], groups=96, bias=False)
                (norm_q): LayerNorm((96,), eps=1e-06, elementwise_affine=True)
                (pool_k): Conv3d(96, 96, kernel_size=[3, 3, 3], stride=[1, 2, 2], padding=[1, 1, 1], groups=96, bias=False)
                (norm_k): LayerNorm((96,), eps=1e-06, elementwise_affine=True)
                (pool_v): Conv3d(96, 96, kernel_size=[3, 3, 3], stride=[1, 2, 2], padding=[1, 1, 1], groups=96, bias=False)
                (norm_v): LayerNorm((96,), eps=1e-06, elementwise_affine=True)
              )
              (drop_path): DropPath()
              (norm2): LayerNorm((384,), eps=1e-06, elementwise_affine=True)
              (mlp): Mlp(
                (fc1): Linear(in_features=384, out_features=1536, bias=True)
                (act): GELU()
                (fc2): Linear(in_features=1536, out_features=384, bias=True)
              )
              (proj): Linear(in_features=192, out_features=384, bias=True)
              (pool_skip): MaxPool3d(kernel_size=[1, 3, 3], stride=[1, 2, 2], padding=[0, 1, 1], dilation=1, ceil_mode=False)
            )
            (4): MultiScaleBlock(
              (norm1): LayerNorm((384,), eps=1e-06, elementwise_affine=True)
              (attn): MultiScaleAttention(
                (qkv): Linear(in_features=384, out_features=1152, bias=True)
                (proj): Linear(in_features=384, out_features=384, bias=True)
                (pool_q): Conv3d(96, 96, kernel_size=[3, 3, 3], stride=[1, 1, 1], padding=[1, 1, 1], groups=96, bias=False)
                (norm_q): LayerNorm((96,), eps=1e-06, elementwise_affine=True)
                (pool_k): Conv3d(96, 96, kernel_size=[3, 3, 3], stride=[1, 2, 2], padding=[1, 1, 1], groups=96, bias=False)
                (norm_k): LayerNorm((96,), eps=1e-06, elementwise_affine=True)
                (pool_v): Conv3d(96, 96, kernel_size=[3, 3, 3], stride=[1, 2, 2], padding=[1, 1, 1], groups=96, bias=False)
                (norm_v): LayerNorm((96,), eps=1e-06, elementwise_affine=True)
              )
              (drop_path): DropPath()
              (norm2): LayerNorm((384,), eps=1e-06, elementwise_affine=True)
              (mlp): Mlp(
                (fc1): Linear(in_features=384, out_features=1536, bias=True)
                (act): GELU()
                (fc2): Linear(in_features=1536, out_features=384, bias=True)
              )
            )
            (5): MultiScaleBlock(
              (norm1): LayerNorm((384,), eps=1e-06, elementwise_affine=True)
              (attn): MultiScaleAttention(
                (qkv): Linear(in_features=384, out_features=1152, bias=True)
                (proj): Linear(in_features=384, out_features=384, bias=True)
                (pool_q): Conv3d(96, 96, kernel_size=[3, 3, 3], stride=[1, 1, 1], padding=[1, 1, 1], groups=96, bias=False)
                (norm_q): LayerNorm((96,), eps=1e-06, elementwise_affine=True)
                (pool_k): Conv3d(96, 96, kernel_size=[3, 3, 3], stride=[1, 2, 2], padding=[1, 1, 1], groups=96, bias=False)
                (norm_k): LayerNorm((96,), eps=1e-06, elementwise_affine=True)
                (pool_v): Conv3d(96, 96, kernel_size=[3, 3, 3], stride=[1, 2, 2], padding=[1, 1, 1], groups=96, bias=False)
                (norm_v): LayerNorm((96,), eps=1e-06, elementwise_affine=True)
              )
              (drop_path): DropPath()
              (norm2): LayerNorm((384,), eps=1e-06, elementwise_affine=True)
              (mlp): Mlp(
                (fc1): Linear(in_features=384, out_features=1536, bias=True)
                (act): GELU()
                (fc2): Linear(in_features=1536, out_features=384, bias=True)
              )
            )
            (6): MultiScaleBlock(
              (norm1): LayerNorm((384,), eps=1e-06, elementwise_affine=True)
              (attn): MultiScaleAttention(
                (qkv): Linear(in_features=384, out_features=1152, bias=True)
                (proj): Linear(in_features=384, out_features=384, bias=True)
                (pool_q): Conv3d(96, 96, kernel_size=[3, 3, 3], stride=[1, 1, 1], padding=[1, 1, 1], groups=96, bias=False)
                (norm_q): LayerNorm((96,), eps=1e-06, elementwise_affine=True)
                (pool_k): Conv3d(96, 96, kernel_size=[3, 3, 3], stride=[1, 2, 2], padding=[1, 1, 1], groups=96, bias=False)
                (norm_k): LayerNorm((96,), eps=1e-06, elementwise_affine=True)
                (pool_v): Conv3d(96, 96, kernel_size=[3, 3, 3], stride=[1, 2, 2], padding=[1, 1, 1], groups=96, bias=False)
                (norm_v): LayerNorm((96,), eps=1e-06, elementwise_affine=True)
              )
              (drop_path): DropPath()
              (norm2): LayerNorm((384,), eps=1e-06, elementwise_affine=True)
              (mlp): Mlp(
                (fc1): Linear(in_features=384, out_features=1536, bias=True)
                (act): GELU()
                (fc2): Linear(in_features=1536, out_features=384, bias=True)
              )
            )
            (7): MultiScaleBlock(
              (norm1): LayerNorm((384,), eps=1e-06, elementwise_affine=True)
              (attn): MultiScaleAttention(
                (qkv): Linear(in_features=384, out_features=1152, bias=True)
                (proj): Linear(in_features=384, out_features=384, bias=True)
                (pool_q): Conv3d(96, 96, kernel_size=[3, 3, 3], stride=[1, 1, 1], padding=[1, 1, 1], groups=96, bias=False)
                (norm_q): LayerNorm((96,), eps=1e-06, elementwise_affine=True)
                (pool_k): Conv3d(96, 96, kernel_size=[3, 3, 3], stride=[1, 2, 2], padding=[1, 1, 1], groups=96, bias=False)
                (norm_k): LayerNorm((96,), eps=1e-06, elementwise_affine=True)
                (pool_v): Conv3d(96, 96, kernel_size=[3, 3, 3], stride=[1, 2, 2], padding=[1, 1, 1], groups=96, bias=False)
                (norm_v): LayerNorm((96,), eps=1e-06, elementwise_affine=True)
              )
              (drop_path): DropPath()
              (norm2): LayerNorm((384,), eps=1e-06, elementwise_affine=True)
              (mlp): Mlp(
                (fc1): Linear(in_features=384, out_features=1536, bias=True)
                (act): GELU()
                (fc2): Linear(in_features=1536, out_features=384, bias=True)
              )
            )
            (8): MultiScaleBlock(
              (norm1): LayerNorm((384,), eps=1e-06, elementwise_affine=True)
              (attn): MultiScaleAttention(
                (qkv): Linear(in_features=384, out_features=1152, bias=True)
                (proj): Linear(in_features=384, out_features=384, bias=True)
                (pool_q): Conv3d(96, 96, kernel_size=[3, 3, 3], stride=[1, 1, 1], padding=[1, 1, 1], groups=96, bias=False)
                (norm_q): LayerNorm((96,), eps=1e-06, elementwise_affine=True)
                (pool_k): Conv3d(96, 96, kernel_size=[3, 3, 3], stride=[1, 2, 2], padding=[1, 1, 1], groups=96, bias=False)
                (norm_k): LayerNorm((96,), eps=1e-06, elementwise_affine=True)
                (pool_v): Conv3d(96, 96, kernel_size=[3, 3, 3], stride=[1, 2, 2], padding=[1, 1, 1], groups=96, bias=False)
                (norm_v): LayerNorm((96,), eps=1e-06, elementwise_affine=True)
              )
              (drop_path): DropPath()
              (norm2): LayerNorm((384,), eps=1e-06, elementwise_affine=True)
              (mlp): Mlp(
                (fc1): Linear(in_features=384, out_features=1536, bias=True)
                (act): GELU()
                (fc2): Linear(in_features=1536, out_features=384, bias=True)
              )
            )
            (9): MultiScaleBlock(
              (norm1): LayerNorm((384,), eps=1e-06, elementwise_affine=True)
              (attn): MultiScaleAttention(
                (qkv): Linear(in_features=384, out_features=1152, bias=True)
                (proj): Linear(in_features=384, out_features=384, bias=True)
                (pool_q): Conv3d(96, 96, kernel_size=[3, 3, 3], stride=[1, 1, 1], padding=[1, 1, 1], groups=96, bias=False)
                (norm_q): LayerNorm((96,), eps=1e-06, elementwise_affine=True)
                (pool_k): Conv3d(96, 96, kernel_size=[3, 3, 3], stride=[1, 2, 2], padding=[1, 1, 1], groups=96, bias=False)
                (norm_k): LayerNorm((96,), eps=1e-06, elementwise_affine=True)
                (pool_v): Conv3d(96, 96, kernel_size=[3, 3, 3], stride=[1, 2, 2], padding=[1, 1, 1], groups=96, bias=False)
                (norm_v): LayerNorm((96,), eps=1e-06, elementwise_affine=True)
              )
              (drop_path): DropPath()
              (norm2): LayerNorm((384,), eps=1e-06, elementwise_affine=True)
              (mlp): Mlp(
                (fc1): Linear(in_features=384, out_features=1536, bias=True)
                (act): GELU()
                (fc2): Linear(in_features=1536, out_features=384, bias=True)
              )
            )
            (10): MultiScaleBlock(
              (norm1): LayerNorm((384,), eps=1e-06, elementwise_affine=True)
              (attn): MultiScaleAttention(
                (qkv): Linear(in_features=384, out_features=1152, bias=True)
                (proj): Linear(in_features=384, out_features=384, bias=True)
                (pool_q): Conv3d(96, 96, kernel_size=[3, 3, 3], stride=[1, 1, 1], padding=[1, 1, 1], groups=96, bias=False)
                (norm_q): LayerNorm((96,), eps=1e-06, elementwise_affine=True)
                (pool_k): Conv3d(96, 96, kernel_size=[3, 3, 3], stride=[1, 2, 2], padding=[1, 1, 1], groups=96, bias=False)
                (norm_k): LayerNorm((96,), eps=1e-06, elementwise_affine=True)
                (pool_v): Conv3d(96, 96, kernel_size=[3, 3, 3], stride=[1, 2, 2], padding=[1, 1, 1], groups=96, bias=False)
                (norm_v): LayerNorm((96,), eps=1e-06, elementwise_affine=True)
              )
              (drop_path): DropPath()
              (norm2): LayerNorm((384,), eps=1e-06, elementwise_affine=True)
              (mlp): Mlp(
                (fc1): Linear(in_features=384, out_features=1536, bias=True)
                (act): GELU()
                (fc2): Linear(in_features=1536, out_features=384, bias=True)
              )
            )
            (11): MultiScaleBlock(
              (norm1): LayerNorm((384,), eps=1e-06, elementwise_affine=True)
              (attn): MultiScaleAttention(
                (qkv): Linear(in_features=384, out_features=1152, bias=True)
                (proj): Linear(in_features=384, out_features=384, bias=True)
                (pool_q): Conv3d(96, 96, kernel_size=[3, 3, 3], stride=[1, 1, 1], padding=[1, 1, 1], groups=96, bias=False)
                (norm_q): LayerNorm((96,), eps=1e-06, elementwise_affine=True)
                (pool_k): Conv3d(96, 96, kernel_size=[3, 3, 3], stride=[1, 2, 2], padding=[1, 1, 1], groups=96, bias=False)
                (norm_k): LayerNorm((96,), eps=1e-06, elementwise_affine=True)
                (pool_v): Conv3d(96, 96, kernel_size=[3, 3, 3], stride=[1, 2, 2], padding=[1, 1, 1], groups=96, bias=False)
                (norm_v): LayerNorm((96,), eps=1e-06, elementwise_affine=True)
              )
              (drop_path): DropPath()
              (norm2): LayerNorm((384,), eps=1e-06, elementwise_affine=True)
              (mlp): Mlp(
                (fc1): Linear(in_features=384, out_features=1536, bias=True)
                (act): GELU()
                (fc2): Linear(in_features=1536, out_features=384, bias=True)
              )
            )
            (12): MultiScaleBlock(
              (norm1): LayerNorm((384,), eps=1e-06, elementwise_affine=True)
              (attn): MultiScaleAttention(
                (qkv): Linear(in_features=384, out_features=1152, bias=True)
                (proj): Linear(in_features=384, out_features=384, bias=True)
                (pool_q): Conv3d(96, 96, kernel_size=[3, 3, 3], stride=[1, 1, 1], padding=[1, 1, 1], groups=96, bias=False)
                (norm_q): LayerNorm((96,), eps=1e-06, elementwise_affine=True)
                (pool_k): Conv3d(96, 96, kernel_size=[3, 3, 3], stride=[1, 2, 2], padding=[1, 1, 1], groups=96, bias=False)
                (norm_k): LayerNorm((96,), eps=1e-06, elementwise_affine=True)
                (pool_v): Conv3d(96, 96, kernel_size=[3, 3, 3], stride=[1, 2, 2], padding=[1, 1, 1], groups=96, bias=False)
                (norm_v): LayerNorm((96,), eps=1e-06, elementwise_affine=True)
              )
              (drop_path): DropPath()
              (norm2): LayerNorm((384,), eps=1e-06, elementwise_affine=True)
              (mlp): Mlp(
                (fc1): Linear(in_features=384, out_features=1536, bias=True)
                (act): GELU()
                (fc2): Linear(in_features=1536, out_features=384, bias=True)
              )
            )
            (13): MultiScaleBlock(
              (norm1): LayerNorm((384,), eps=1e-06, elementwise_affine=True)
              (attn): MultiScaleAttention(
                (qkv): Linear(in_features=384, out_features=1152, bias=True)
                (proj): Linear(in_features=384, out_features=384, bias=True)
                (pool_q): Conv3d(96, 96, kernel_size=[3, 3, 3], stride=[1, 1, 1], padding=[1, 1, 1], groups=96, bias=False)
                (norm_q): LayerNorm((96,), eps=1e-06, elementwise_affine=True)
                (pool_k): Conv3d(96, 96, kernel_size=[3, 3, 3], stride=[1, 2, 2], padding=[1, 1, 1], groups=96, bias=False)
                (norm_k): LayerNorm((96,), eps=1e-06, elementwise_affine=True)
                (pool_v): Conv3d(96, 96, kernel_size=[3, 3, 3], stride=[1, 2, 2], padding=[1, 1, 1], groups=96, bias=False)
                (norm_v): LayerNorm((96,), eps=1e-06, elementwise_affine=True)
              )
              (drop_path): DropPath()
              (norm2): LayerNorm((384,), eps=1e-06, elementwise_affine=True)
              (mlp): Mlp(
                (fc1): Linear(in_features=384, out_features=1536, bias=True)
                (act): GELU()
                (fc2): Linear(in_features=1536, out_features=384, bias=True)
              )
            )
            (14): MultiScaleBlock(
              (norm1): LayerNorm((384,), eps=1e-06, elementwise_affine=True)
              (attn): MultiScaleAttention(
                (qkv): Linear(in_features=384, out_features=2304, bias=True)
                (proj): Linear(in_features=768, out_features=768, bias=True)
                (pool_q): Conv3d(96, 96, kernel_size=[3, 3, 3], stride=[1, 2, 2], padding=[1, 1, 1], groups=96, bias=False)
                (norm_q): LayerNorm((96,), eps=1e-06, elementwise_affine=True)
                (pool_k): Conv3d(96, 96, kernel_size=[3, 3, 3], stride=[1, 1, 1], padding=[1, 1, 1], groups=96, bias=False)
                (norm_k): LayerNorm((96,), eps=1e-06, elementwise_affine=True)
                (pool_v): Conv3d(96, 96, kernel_size=[3, 3, 3], stride=[1, 1, 1], padding=[1, 1, 1], groups=96, bias=False)
                (norm_v): LayerNorm((96,), eps=1e-06, elementwise_affine=True)
              )
              (drop_path): DropPath()
              (norm2): LayerNorm((768,), eps=1e-06, elementwise_affine=True)
              (mlp): Mlp(
                (fc1): Linear(in_features=768, out_features=3072, bias=True)
                (act): GELU()
                (fc2): Linear(in_features=3072, out_features=768, bias=True)
              )
              (proj): Linear(in_features=384, out_features=768, bias=True)
              (pool_skip): MaxPool3d(kernel_size=[1, 3, 3], stride=[1, 2, 2], padding=[0, 1, 1], dilation=1, ceil_mode=False)
            )
            (15): MultiScaleBlock(
              (norm1): LayerNorm((768,), eps=1e-06, elementwise_affine=True)
              (attn): MultiScaleAttention(
                (qkv): Linear(in_features=768, out_features=2304, bias=True)
                (proj): Linear(in_features=768, out_features=768, bias=True)
                (pool_q): Conv3d(96, 96, kernel_size=[3, 3, 3], stride=[1, 1, 1], padding=[1, 1, 1], groups=96, bias=False)
                (norm_q): LayerNorm((96,), eps=1e-06, elementwise_affine=True)
                (pool_k): Conv3d(96, 96, kernel_size=[3, 3, 3], stride=[1, 1, 1], padding=[1, 1, 1], groups=96, bias=False)
                (norm_k): LayerNorm((96,), eps=1e-06, elementwise_affine=True)
                (pool_v): Conv3d(96, 96, kernel_size=[3, 3, 3], stride=[1, 1, 1], padding=[1, 1, 1], groups=96, bias=False)
                (norm_v): LayerNorm((96,), eps=1e-06, elementwise_affine=True)
              )
              (drop_path): DropPath()
              (norm2): LayerNorm((768,), eps=1e-06, elementwise_affine=True)
              (mlp): Mlp(
                (fc1): Linear(in_features=768, out_features=3072, bias=True)
                (act): GELU()
                (fc2): Linear(in_features=3072, out_features=768, bias=True)
              )
            )
          )
          (norm): LayerNorm((768,), eps=1e-06, elementwise_affine=True)
          (head): TransformerBasicHead(
            (dropout): Dropout(p=0.5, inplace=False)
            (projection): Linear(in_features=768, out_features=7, bias=True)
            (act): Softmax(dim=1)
          )
        )
      )
      (all_fc): ModuleList(
        (0): FC(
          (relu): ReLU()
          (fc_new): Linear(in_features=768, out_features=512, bias=True)
          (fc): Linear(in_features=512, out_features=1, bias=True)
        )
        (1): FC(
          (relu): ReLU()
          (fc_new): Linear(in_features=768, out_features=512, bias=True)
          (fc): Linear(in_features=512, out_features=1, bias=True)
        )
        (2): FC(
          (relu): ReLU()
          (fc_new): Linear(in_features=768, out_features=512, bias=True)
          (fc): Linear(in_features=512, out_features=1, bias=True)
        )
        (3): FC(
          (relu): ReLU()
          (fc_new): Linear(in_features=768, out_features=512, bias=True)
          (fc): Linear(in_features=512, out_features=1, bias=True)
        )
        (4): FC(
          (relu): ReLU()
          (fc_new): Linear(in_features=768, out_features=512, bias=True)
          (fc): Linear(in_features=512, out_features=1, bias=True)
        )
        (5): FC(
          (relu): ReLU()
          (fc_new): Linear(in_features=768, out_features=512, bias=True)
          (fc): Linear(in_features=512, out_features=1, bias=True)
        )
        (6): FC(
          (relu): ReLU()
          (fc_new): Linear(in_features=768, out_features=512, bias=True)
          (fc): Linear(in_features=512, out_features=1, bias=True)
        )
        (7): FC(
          (relu): ReLU()
          (fc_new): Linear(in_features=768, out_features=512, bias=True)
          (fc): Linear(in_features=512, out_features=1, bias=True)
        )
        (8): FC(
          (relu): ReLU()
          (fc_new): Linear(in_features=768, out_features=512, bias=True)
          (fc): Linear(in_features=512, out_features=1, bias=True)
        )
        (9): FC(
          (relu): ReLU()
          (fc_new): Linear(in_features=768, out_features=512, bias=True)
          (fc): Linear(in_features=512, out_features=1, bias=True)
        )
        (10): FC(
          (relu): ReLU()
          (fc_new): Linear(in_features=768, out_features=512, bias=True)
          (fc): Linear(in_features=512, out_features=1, bias=True)
        )
        (11): FC(
          (relu): ReLU()
          (fc_new): Linear(in_features=768, out_features=512, bias=True)
          (fc): Linear(in_features=512, out_features=1, bias=True)
        )
        (12): FC(
          (relu): ReLU()
          (fc_new): Linear(in_features=768, out_features=512, bias=True)
          (fc): Linear(in_features=512, out_features=1, bias=True)
        )
        (13): FC(
          (relu): ReLU()
          (fc_new): Linear(in_features=768, out_features=512, bias=True)
          (fc): Linear(in_features=512, out_features=1, bias=True)
        )
        (14): FC(
          (relu): ReLU()
          (fc_new): Linear(in_features=768, out_features=512, bias=True)
          (fc): Linear(in_features=512, out_features=1, bias=True)
        )
      )
    )
    (sec_model): MLP(
      (linear): Linear(in_features=15, out_features=7, bias=True)
      (activation): ReLU()
      (linear2): Linear(in_features=512, out_features=7, bias=True)
    )
    (third_model): MLP(
      (linear): Linear(in_features=15, out_features=17, bias=True)
      (activation): ReLU()
      (linear2): Linear(in_features=512, out_features=17, bias=True)
    )
  )
)
[01/27 01:54:31][INFO] misc.py:  188: Params: 108,632,892
[01/27 01:54:31][INFO] misc.py:  189: Mem: 0.41101551055908203 MB
[01/27 01:56:46][INFO] train_net.py:  537: Train with config:
[01/27 01:56:46][INFO] train_net.py:  538: {'AUG': {'AA_TYPE': 'rand-m7-n4-mstd0.5-inc1',
         'COLOR_JITTER': 0.4,
         'ENABLE': True,
         'GEN_MASK_LOADER': False,
…
